models/net_model_2_h_layers_50_50.pth (torch, 19735 bytes, 6 tensors)

0.weight f4 [50, 12]
0	0x3fe452b3	1.7837738
1	0x3e9ff3c3	0.31240663
2	0xbf0eccdd	-0.55781347
3	0xbff2b656	-1.8961895
4	0x3e3c62e9	0.18397106
5	0x3f7b3d1f	0.9814014
6	0x3f1fff73	0.6249916
7	0x3f8b9feb	1.0908178
8	0xbff3e218	-1.9053373
9	0xbfb598f7	-1.4187306
10	0xbe1762a1	-0.14783718
11	0x3f8097d9	1.004634
12	0x3bb5e720	0.005551234
13	0xbe417b26	-0.18894634
14	0xbcde45d9	-0.027132915
15	0xbda2b34b	-0.07944354
16	0xbe5d9079	-0.21637143
17	0x3dcef2cc	0.101049036
18	0xbe935115	-0.28772798
19	0xbd49cb46	-0.049266122
20	0xbe5ecc85	-0.21757706
21	0xbccda40c	-0.025102638
22	0xbe2d27b5	-0.16909678
23	0xbbd97529	-0.006636281
24	0x3e7d145c	0.24714798
25	0x3e02b6d0	0.1276505
26	0x3ce5dd20	0.028059542
27	0x3e372c0a	0.17887893
28	0x3b08f600	0.002089858
29	0x3dfd090c	0.12355241
30	0xbe936dc3	-0.2879468
31	0x3e34c710	0.17654061
32	0xbcf0a9c0	-0.029377818
33	0x3cd88760	0.02643174
34	0x3e322212	0.1739581
35	0x3e32bf28	0.17455733
36	0xbe8c2969	-0.27375343
37	0xbeab0549	-0.3340247
38	0x3cb31b82	0.021863703
39	0x3e1a2b4b	0.15055577
40	0x3e4bb97b	0.19894974
41	0xbe040aae	-0.12894699
42	0xbe71d639	-0.23616876
43	0xbe457fd6	-0.19287047
44	0xbd56b1b0	-0.05241555
45	0x3db061ea	0.086124256
46	0x3cb2957a	0.021799792
47	0xbe1988b2	-0.14993551
48	0x3fbe1af8	1.485198
49	0x3f0113de	0.5042094
50	0x3fa924d4	1.3214364
51	0x3ecfd2bd	0.40590468
52	0xbcd731e8	-0.026268914
53	0xbfb1b004	-1.3881841
54	0xc00b0139	-2.1719496
55	0x3f8f4032	1.1191466
56	0x3e00f384	0.12592894
57	0x3f38eba8	0.7223458
58	0xbf5a0891	-0.8516932
59	0xbe7a29cf	-0.24430011
60	0x3e0317e0	0.12802076
61	0xbca80360	-0.020509422
62	0xbdb82fba	-0.08993478
63	0x3d6f05d0	0.058355153
64	0x3e603884	0.21896559
65	0x3e08005e	0.1328139
66	0x3e84ee8e	0.25963253
67	0xbd0392d8	-0.032122463
68	0xbdde9d32	-0.108698264
69	0x3d380708	0.04492858
70	0x3db1c8cc	0.08680877
71	0x3d618778	0.055060834
72	0xbeb377f4	-0.35052454
73	0x3ee1ae3a	0.44078237
74	0x3fe4bcc2	1.7870104
75	0x3e8a6e83	0.2703744
76	0xbf65f6b4	-0.89829564
77	0x3f918aaa	1.1370442
78	0xbf483b76	-0.7821573
79	0xbf1e94d8	-0.6194587
80	0xbdb4c480	-0.08826542
81	0x3f681c36	0.90668046
82	0x3f87f9d0	1.0623112
83	0xc00331ff	-2.0499265
84	0x3f704951	0.9386187
85	0xbfc03c40	-1.5018387
86	0x3eafa5ce	0.34306186
87	0x3d0cb427	0.034351494
88	0xbf27d250	-0.65555286
89	0x3f5d95bf	0.8655662
90	0xbfc62005	-1.5478522
91	0x3f766c85	0.9625934
92	0xbf52960f	-0.8226022
93	0x3f706a50	0.9391222
94	0x3f968d51	1.1761876
95	0xbf803e6f	-1.0019053
96	0xbe8dd2d8	-0.27699924
97	0xbe44d7a8	-0.19222891
98	0xbd977312	-0.07394995
99	0xbc1d4640	-0.009599268
100	0xbcfaf290	-0.030633241
101	0xbe09cf40	-0.13457966
102	0xbd67b358	-0.05656752
103	0x3d64c208	0.055849105
104	0xbe5dbebd	-0.21654792
105	0xbe2d8708	-0.16946042
106	0xbe32dfc7	-0.17468177
107	0xbe53a52a	-0.20668474
108	0xbd9271ae	-0.07150589
109	0xbd54792c	-0.05187337
110	0xbe730940	-0.23733997
111	0xbe5c0638	-0.21486747
112	0x3c8d8370	0.017274588
113	0xbe49a12c	-0.19690388
114	0x3e88bc52	0.26706177
115	0xbdd59608	-0.10429007
116	0x3dfe6b24	0.12422779
117	0x3ceca000	0.028884888
118	0xbdcdf670	-0.1005677
119	0x3e0bf6e8	0.13668406
120	0x3fa66f59	1.3002731
121	0xbf665fda	-0.8999001
122	0x3ec0e4cf	0.37674567
123	0x3f9e1585	1.2350317
124	0xbfc3ea03	-1.530579
125	0x3f5c1b72	0.8597938
126	0xbfa1ba20	-1.2634926
127	0x3f83fab2	1.0310881
128	0x3eb2eee3	0.3494788
129	0xbf0048fe	-0.5011138
130	0x3fb3adf1	1.4037458
131	0xbf1b6c3b	-0.6071202
132	0xbe5c7607	-0.21529399
133	0xbe883b70	-0.26607847
134	0xbcdf9720	-0.027293742
135	0x3e6d16fc	0.23153299
136	0xbd51bcc0	-0.051205397
137	0xbe87a5b8	-0.2649362
138	0xbd1cdb10	-0.03829485
139	0xbe451e96	-0.19249949
140	0x3e408c90	0.1880362
141	0x3df33760	0.11875796
142	0xbe25f2b2	-0.16205862
143	0x3e86f072	0.2635532
144	0x3e7b3150	0.2453053
145	0xbfab02d9	-1.3360244
146	0xbffd028b	-1.9766401
147	0x3fe73668	1.8063478
148	0x3d347a6c	0.044062063
149	0xbf5a2e51	-0.85226923
150	0xbee09c7c	-0.43869388
151	0x3fa0f1c9	1.2573787
152	0x3fd95590	1.6979237
153	0xbfaa540e	-1.3306901
154	0x3e96e2d8	0.29469943
155	0x3f74951b	0.95540017
156	0x3c821010	0.0158768
157	0x3e37cba0	0.1794877
158	0x3e8a5f64	0.27025902
159	0xbe0bac80	-0.13640022
160	0x3bcf8d40	0.006333977
161	0x3e6028ec	0.2189061
162	0xbd9b5566	-0.07584648
163	0xbdf5b7ca	-0.119979456
164	0xbe13b7bd	-0.1442556
165	0x3e441a70	0.1915071
166	0x3e66a314	0.22523147
167	0xbd7a0b1c	-0.06104575
168	0xbe326d08	-0.17424405
169	0x3d2d5138	0.042313784
170	0x3e89ee38	0.2693956
171	0xbd935350	-0.07193625
172	0xbe106b8b	-0.14103524
173	0xbc876d50	-0.016531616
174	0xbe933891	-0.28754094
175	0xbe16e62a	-0.14736238
176	0x3e4a4404	0.19752508
177	0x3e1be92c	0.15225667
178	0x3d311880	0.043236256
179	0x3e6d4a9c	0.23172992
180	0x3f9a4360	1.2051811
181	0xbf8c6729	-1.0968982
182	0x3eafd766	0.34344023
183	0xbf7e41ba	-0.9931904
184	0x40124ed7	2.286062
185	0x3d12e9c6	0.035867475
186	0xbf34a97c	-0.7057111
187	0xbe72359f	-0.23653267
188	0xbfc1aeff	-1.513153
189	0x3fa9b2c2	1.3257678
190	0xbf50fb58	-0.8163352
191	0x3f960de7	1.1722993
192	0xbe53db11	-0.20689036
193	0xbe2d32d0	-0.16913915
194	0x3e5d4b2c	0.21610707
195	0xbdc2e852	-0.09516968
196	0x3e92532a	0.28579074
197	0xbde39404	-0.11112216
198	0x3e269372	0.16267183
199	0xbe353e06	-0.17699441
200	0x3e3855b2	0.1800144
201	0x3df77de4	0.120845586
202	0xbc2ab800	-0.010419846
203	0xbe6203d5	-0.22071774
204	0xbe3627dc	-0.17788643
205	0xbe15d421	-0.14631702
206	0xbe17c33a	-0.14820567
207	0xbd621e94	-0.055204943
208	0xbe3c5044	-0.18389994
209	0xbe069eee	-0.13146564
210	0x3d450208	0.04809764
211	0xbe837ea4	-0.25682557
212	0x3e37f8b2	0.17965963
213	0xbe537dc2	-0.20653442
214	0x3e07c42e	0.1325843
215	0xbdfe5926	-0.124193475
216	0xbf1f0000	-0.62109375
217	0xbfadc9fc	-1.3577266
218	0xbf834fb0	-1.0258694
219	0x3fdcc01c	1.7246127
220	0x3fda9b4e	1.7078645
221	0x3d97f0aa	0.0741895
222	0xbf8eefed	-1.116697
223	0xc0311f76	-2.7675452
224	0xbe35c254	-0.17749912
225	0x3f9ee74c	1.2414336
226	0x3f8a5734	1.0807862
227	0x3f6ce943	0.9254343
228	0x3e51b08e	0.20477507
229	0x3e48d067	0.19610749
230	0x3fa109a1	1.2581064
231	0xbefdc6ec	-0.49565828
232	0xbfe53721	-1.7907449
233	0xc0427c48	-3.0388355
234	0x3f953028	1.1655321
235	0x3fa599ff	1.2937621
236	0xbede3dcd	-0.43406525
237	0x3a518afd	0.0007993428
238	0xbef5f7bb	-0.48040566
239	0x3fc13b52	1.5096228
240	0x3f68f517	0.9099898
241	0x3e486ca6	0.19572696
242	0x3fb53202	1.4155886
243	0xbf57cb50	-0.84294605
244	0xbd9b9ce2	-0.075982824
245	0xbd55a4a5	-0.05215897
246	0xbee3119c	-0.44349372
247	0x3f724f8e	0.9465264
248	0xbe8c1690	-0.27360964
249	0x3f6f5339	0.9348636
250	0xbf9fe383	-1.2491306
251	0xbfa58198	-1.2930174
252	0xbc791b40	-0.015204251
253	0xbd124068	-0.035705954
254	0x3d9ad608	0.075603545
255	0x3d85c0f0	0.065309405

0.bias f4 [50]
0	0x3dc337d2	0.09532131
1	0xbd9bacde	-0.07601331
2	0xbe1d4321	-0.15357639
3	0xbdcb6477	-0.099312715
4	0x3d4b39e3	0.049615752
5	0xbe310115	-0.17285569
6	0x3de4f2b3	0.11179104
7	0x3e075334	0.13215333
8	0xbe055136	-0.13019261
9	0xbe3bcc62	-0.18339685
10	0x3de42777	0.1114034
11	0xbe431f2a	-0.19054857
12	0x3e223228	0.15839446
13	0xbe609c6e	-0.21934673
14	0xbe3b6ba6	-0.18302783
15	0x3dc947df	0.098281614
16	0xbe747025	-0.23870905
17	0xbd9e7514	-0.07737175
18	0x3db8ede9	0.09029753
19	0x3e33631a	0.17518273
20	0x3e1ec9ce	0.1550667
21	0xbe2b3d3e	-0.16722581
22	0xbe85717d	-0.26063147
23	0xbe817692	-0.25285774
24	0xbdceb6d2	-0.10093464
25	0xbe1aa4e8	-0.15101969
26	0x3deea467	0.11652451
27	0xbe2bc17c	-0.16773027
28	0x3e1bb8ad	0.15207167
29	0x3d0fda39	0.035120223
30	0x3a9ce820	0.0011971034
31	0x3d93a9fe	0.07210158
32	0xbe66c178	-0.2253474
33	0xbe05c6f2	-0.13064173
34	0x3dfedf34	0.12444916
35	0xbcb5e6db	-0.022204807
36	0x3e503e0c	0.20336169
37	0x3e26970d	0.16268559
38	0x3e31a3df	0.17347668
39	0x3c01c8e4	0.007921431
40	0xbe13476f	-0.14382719
41	0xbe1892fe	-0.14899823
42	0x3e46d8e1	0.1941867
43	0x3e18b2b0	0.14911914
44	0x3dfdd6f4	0.12394515
45	0xbdefe860	-0.11714244
46	0x3e392188	0.18079197
47	0x3d7f080a	0.062263526
48	0xbe59884b	-0.21243398
49	0x3e649dc4	0.22325808

2.weight f4 [50, 50]
0	0x3f6a1ff3	0.91455
1	0x3d4e9ea6	0.050444268
2	0xbc762880	-0.015024304
3	0xbe1d713e	-0.1537523
4	0x3fec43e8	1.8458223
5	0xbdb02ecf	-0.08602678
6	0x3f12be78	0.5732188
7	0x3f3f43b3	0.74712676
8	0x3c73e520	0.014886171
9	0xbdc6ff9a	-0.09716721
10	0x3f47dcdd	0.78071386
11	0x3dd683f2	0.10474385
12	0xbe3d203c	-0.18469328
13	0x3c65dd60	0.014029831
14	0x3dfeff02	0.12450983
15	0x3fdcfc08	1.7264414
16	0x3d87dca4	0.06633881
17	0x3d6f9be0	0.058498263
18	0xbdd774a4	-0.10520294
19	0xbf45d952	-0.7728473
20	0x3fc60d0f	1.5472735
21	0xbe079a0d	-0.1324236
22	0x3e0f4c7f	0.13994025
23	0xbb5a8100	-0.003334105
24	0xbd24705a	-0.04014621
25	0x3e2c1709	0.16805662
26	0xbf204059	-0.62598187
27	0x3ddd4132	0.10803451
28	0x3e507c8a	0.20360008
29	0x3db0eb18	0.086385906
30	0x3ff61a1e	1.922672
31	0xbe96e256	-0.29469556
32	0xbd0e75d0	-0.034780324
33	0x3d89fbc0	0.067374706
34	0xbe073a82	-0.13205913
35	0x4001dfa6	2.0292754
36	0x3cdba57e	0.026812311
37	0xbe317217	-0.17328678
38	0xbd0743d2	-0.033023663
39	0xbda0c4c4	-0.0785003
40	0xbd1c629a	-0.03817997
41	0xbe3bb8d4	-0.18332225
42	0xbf0c0577	-0.5469584
43	0xbcc9d157	-0.024635954
44	0xbea9c8c4	-0.33160985
45	0xbdf481e0	-0.11938834
46	0xbea1b09e	-0.3158006
47	0xbf188430	-0.595767
48	0x3dda5394	0.106604725
49	0x3fa7e890	1.3117847
50	0xbdde26cb	-0.10847243
51	0x3c5418b0	0.012945339
52	0xbc100cc0	-0.008792102
53	0xbd8b8296	-0.06812017
54	0xbef68a5b	-0.48152432
55	0x3b55fa80	0.003265053
56	0xbec43854	-0.38324225
57	0xbec3b9ba	-0.38227636
58	0x3d9760a8	0.073914826
59	0xbdc18ef6	-0.09451096
60	0xbe9184ae	-0.2842154
61	0x3d3e4c88	0.046459705
62	0xbd8a27f5	-0.067459024
63	0xbd105020	-0.035232663
64	0xbdf2c424	-0.11853817
65	0xbdf6bb9d	-0.12047503
66	0x3e0fca51	0.14042021
67	0x3c5513c0	0.013005197
68	0xbe8af03c	-0.2713641
69	0xbe2b340f	-0.16719078
70	0xbdffb16b	-0.12485012
71	0x3bd0ae40	0.0063684285
72	0xbb02ab00	-0.001993835
73	0x3dcf23be	0.10114239
74	0xbdb7c264	-0.08972624
75	0xbde42c19	-0.111412235
76	0xbe8dcd5f	-0.27695748
77	0x3dfc5096	0.12320058
78	0x3cf16c13	0.02947048
79	0xbe2b93cc	-0.16755599
80	0xbe92a548	-0.28641725
81	0xbd179861	-0.037010554
82	0x3dff7c6a	0.12474902
83	0xbdd3e76a	-0.10346873
84	0xbdd9276c	-0.10603222
85	0xbd77e826	-0.06052413
86	0x3dc3bb33	0.0955719
87	0xbd881b6c	-0.06645855
88	0xbe00edda	-0.12590733
89	0xbe48be05	-0.19603737
90	0xbd2ff048	-0.04295376
91	0xbe0d64f9	-0.1380805
92	0xbe03bccf	-0.12864994
93	0xbe5b94e9	-0.21443523
94	0xbe3f9702	-0.18709949
95	0xbe08c956	-0.13358054
96	0x3d35ea6a	0.044413008
97	0xbe69536e	-0.22785732
98	0x3d77977c	0.0604472
99	0xbec59eec	-0.3859781
100	0xbf226cfb	-0.6344754
101	0xbd08fa33	-0.033441734
102	0x3d9aa7b6	0.075515196
103	0xbdf0b196	-0.11752622
104	0xbebdd7a5	-0.37078586
105	0xbd9b94c1	-0.07596732
106	0xbcfc54e7	-0.030802203
107	0xbe78ecd9	-0.243091
108	0xbbf3b0a0	-0.007436827
109	0x3d54a938	0.051919192
110	0x3fb175e9	1.3864108
111	0xbbcae500	-0.0061918497
112	0x3ffcac60	1.9740105
113	0xbd54b772	-0.05193276
114	0xbd849c6e	-0.06475149
115	0xbfa70353	-1.304789
116	0xbb9de5a0	-0.004818633
117	0x3e07ac47	0.13249312
118	0x3e276bed	0.16349764
119	0x3f6645ab	0.89950055
120	0xbf2c477c	-0.67296576
121	0x3e102323	0.14075904
122	0xbd5c8a46	-0.053842805
123	0xbcaccb54	-0.021093048
124	0xbd2b9376	-0.041888677
125	0xbe0bf85d	-0.13668962
126	0xbef8a377	-0.48562214
127	0xbe1caabd	-0.15299506
128	0x3f638abd	0.8888357
129	0x3f554d54	0.8332112
130	0x3f47c951	0.7804156
131	0x3ea99763	0.3312331
132	0x3cfa6730	0.030566782
133	0x3e1ca025	0.15295465
134	0x3f0bb877	0.54578346
135	0x3f8c411b	1.0957369
136	0xbf7ba1f7	-0.98294014
137	0x3e91efc2	0.28503233
138	0x3f1dda2c	0.6166103
139	0xbef3abfd	-0.47592154
140	0xbc9ce894	-0.01915387
141	0xbe06c4e0	-0.1316104
142	0x3f8f59cd	1.119928
143	0x3f8baf8d	1.0912949
144	0x3ed9af44	0.4251653
145	0x3d0359bf	0.03206801
146	0xbd8bad9e	-0.06820224
147	0x3f928827	1.14478
148	0xbde441d5	-0.11145369
149	0xbfbe72bc	-1.4878764
150	0xbe1d4f7b	-0.1536235
151	0xb6480000	-2.9802322e-06
152	0xbd3fd0d2	-0.046830006
153	0xbdf08ecc	-0.11745986
154	0xbbc8703a	-0.006116894
155	0xbceea4dc	-0.029131345
156	0xbf2a15e7	-0.6643967
157	0xbf13d5c6	-0.5774807
158	0x3d6b0194	0.057374552
159	0x3de01e62	0.10943295
160	0xbf68b115	-0.90895206
161	0xbdd379f6	-0.103259966
162	0xbe25c2fd	-0.16187663
163	0xbd567836	-0.052360736
164	0xbdea035f	-0.11426424
165	0x3ef47c2d	0.4775099
166	0x3ddbce2a	0.10732682
167	0xbc8e5588	-0.017374769
168	0x3f28375e	0.65709484
169	0x3f50811d	0.8144701
170	0xbf1a4675	-0.6026376
171	0xbd9ba7a5	-0.07600335
172	0xbd5614d4	-0.052265957
173	0xbdf1760a	-0.11790092
174	0x3d8bbe52	0.0682341
175	0x3dd511c8	0.10403782
176	0x3f32597b	0.69667786
177	0x3dc77611	0.09739316
178	0xbf1fb770	-0.6238928
179	0xbe25e5f1	-0.16200997
180	0xbf0ff6e8	-0.56236124
181	0x3f9583d1	1.1680852
182	0x3cbe1ad8	0.02320616
183	0xbd212204	-0.03933908
184	0xbc3b7d3a	-0.011443431
185	0xbf479a5a	-0.77969897
186	0x3f7205d7	0.9454016
187	0x3f2e4807	0.68078655
188	0xbee69d31	-0.45041803
189	0x3f6ee006	0.9331058
190	0xbd83c9b8	-0.06434959
191	0x3e119ad8	0.14219224
192	0x3ec6e75c	0.38848388
193	0x3f1183b6	0.568416
194	0xbec14cf0	-0.3775401
195	0xbdba3ca4	-0.090935975
196	0x3f906b9c	1.128284
197	0x3f28da91	0.65958506
198	0x3c9e4728	0.01932104
199	0xbfbbbbdb	-1.4666704
200	0x3cd3fceb	0.025877437
201	0x3db18140	0.086672306
202	0xbd5586c4	-0.052130476
203	0xbdb6bba2	-0.08922507
204	0xbbbd314b	-0.0057736984
205	0x3debbede	0.115110144
206	0x3a3f088d	0.0007287346
207	0x3be145b2	0.0068747634
208	0xbd6875aa	-0.05675284
209	0xbe01b30f	-0.12665962
210	0xbdb79e4b	-0.08965739
211	0xbcf7c3f0	-0.030244797
212	0xbdf774ff	-0.12082862
213	0xbe096f6f	-0.13421415
214	0x3de9236a	0.11383708
215	0xbd876d7c	-0.06612679
216	0x3e0b46b3	0.13601188
217	0xbe0d3cab	-0.13792674
218	0xbe30cf15	-0.17266496
219	0xbd0c32dc	-0.03422819
220	0xbdb3c384	-0.08777526
221	0x3e024621	0.12722065
222	0x3d665248	0.056230813
223	0x3de374b2	0.11106242
224	0x3dd69088	0.10476786
225	0xbbecaa00	-0.007222414
226	0xbdd5dffe	-0.10443114
227	0x3e0ebc07	0.13938914
228	0xbdac8baa	-0.08425076
229	0x3db5a853	0.08869996
230	0x3dadf99d	0.084948756
231	0xbdc2196c	-0.09477505
232	0x3dc1c9a0	0.09462285
233	0x3ccfe920	0.025379717
234	0xbe354be7	-0.17704736
235	0xbdc24112	-0.094850674
236	0xbe1e68db	-0.15469687
237	0x3d7ad438	0.061237544
238	0xbe3ee719	-0.18642844
239	0x3da1261a	0.078685954
240	0x3c8d2f60	0.017234504
241	0xbd3db1b2	-0.04631204
242	0x3b62567b	0.003453641
243	0x3d83cc88	0.064354956
244	0x3cda0a19	0.026616143
245	0xbb9886a0	-0.0046547204
246	0xbdd3eb61	-0.10347629
247	0xbbf87242	-0.00758198
248	0xbe0aafd5	-0.13543637
249	0x3d46484b	0.048408788
250	0xbea4a4b9	-0.32156923
251	0xbdeed88b	-0.11662396
252	0x3d812d5c	0.0630748
253	0xbdb1d0ca	-0.086824015
254	0xbe974e86	-0.29552096
255	0x3de2acbe	0.11068104

2.bias f4 [50]
0	0x3d21ad09	0.03947166
1	0xbe55e9c0	-0.2088995
2	0x3e6d8f11	0.23199107
3	0x3db47e00	0.08813095
4	0xbdaf2ecc	-0.08553848
5	0xbe8e1a35	-0.2775437
6	0x3e3caac0	0.18424511
7	0x3ee301e5	0.44337383
8	0x3dade051	0.084900506
9	0xbdee1474	-0.11624995
10	0x3e9a9c83	0.30197534
11	0xbc8fb3a0	-0.017541707
12	0xbe7153b5	-0.23567088
13	0xbe4db990	-0.20090318
14	0x3ebc1636	0.36735696
15	0x3dc05aa0	0.09392285
16	0xbd8b591c	-0.06804106
17	0xbd3bdbe6	-0.04586401
18	0xbde18a22	-0.11012675
19	0x3e85ea9e	0.2615556
20	0xbe4106ae	-0.18850204
21	0x3cc99d7c	0.024611227
22	0x3e72f229	0.2372519
23	0xbd6d19b3	-0.057885837
24	0x3e31af5f	0.17352055
25	0xbe622400	-0.22084045
26	0x3e7b86e8	0.24563181
27	0xbe6c0337	-0.23048101
28	0x3e8c80e6	0.27442092
29	0x3d87f0c4	0.06637719
30	0xbe87ca2a	-0.26521426
31	0x3e844d6f	0.25840327
32	0xbed0a2a9	-0.407491
33	0xbdd83479	-0.10556883
34	0xbddecd5b	-0.10879012
35	0xbd615769	-0.055015
36	0x3e066b15	0.13126786
37	0x3ec0a2a6	0.3762409
38	0xbe3228fc	-0.17398447
39	0x3e947d5b	0.2900189
40	0xbe219085	-0.15777786
41	0xbd5a0a1e	-0.053232305
42	0xbc092a33	-0.0083718775
43	0xbe9d3344	-0.30703175
44	0x3c9bc238	0.01901351
45	0x3e8d41a7	0.2758915
46	0x3e6f3ff3	0.23364238
47	0x3e3e7544	0.18599421
48	0xbeea6902	-0.4578324
49	0x3dc0a8d8	0.094072044

4.weight f4 [24, 50]
0	0x3f115b55	0.56779987
1	0xbe21867b	-0.15773956
2	0x3effb0d0	0.49939585
3	0xbf1d6444	-0.6148112
4	0xbdc206c0	-0.09473944
5	0xbeadcb9d	-0.33944407
6	0xbf4a1fa2	-0.7895452
7	0xbc423384	-0.011853103
8	0xbff89e4f	-1.9423312
9	0x3d8ec8e4	0.069719106
10	0xc009ad32	-2.151196
11	0xbc5561da	-0.013023818
12	0xbda4d68c	-0.08048734
13	0x3d983dba	0.074336484
14	0x3f0cad7c	0.54952216
15	0x3ef1ee92	0.47252327
16	0xbd0ad09a	-0.033890344
17	0xbf6daf35	-0.9284547
18	0xbcf7a822	-0.03023154
19	0xbec99d07	-0.39377615
20	0xbc558ff4	-0.013034809
21	0x3f122243	0.5708353
22	0x3d515dd5	0.051114876
23	0x3d777c86	0.06042149
24	0xbf1244e5	-0.57136375
25	0xbdfbb5d1	-0.12290538
26	0x3ccf8399	0.025331305
27	0x3b74e800	0.0037369728
28	0xbfa46907	-1.2844552
29	0xbda3a55d	-0.07990525
30	0xbe825179	-0.25452784
31	0xbe999e26	-0.3000347
32	0x3cb60dcf	0.022223381
33	0xbc5b4206	-0.01338244
34	0xbdfa4002	-0.1221924
35	0x3ea9f2e4	0.33193123
36	0x3eb576f2	0.3544231
37	0x3f37771e	0.71666133
38	0xbd2aac0d	-0.041667987
39	0xbf72befa	-0.9482266
40	0xbe258d59	-0.16167201
41	0xbc7925b2	-0.015206741
42	0x3e8c80c4	0.2744199
43	0xbdfaf617	-0.12253969
44	0x3f5122ba	0.81693614
45	0xbf0a22f6	-0.53959596
46	0x3db9b7c8	0.090682566
47	0xbfd3f58f	-1.6559314
48	0x3e097abb	0.13425724
49	0x3f498b86	0.7872852
50	0x3f1e91f6	0.6194147
51	0x3e9d3bba	0.3070963
52	0x3da2bc1c	0.07946035
53	0x3ec97754	0.39348853
54	0xbd6b59ca	-0.057458676
55	0xbdefd837	-0.117111616
56	0xbecc13b4	-0.39858782
57	0x3ec46b98	0.38363338
58	0xbfb763b9	-1.4327308
59	0xbc8d4ba5	-0.017247984
60	0x3eacb091	0.3372846
61	0xbd28dbc3	-0.041225206
62	0xbe84abf2	-0.25912434
63	0x3e0acc4b	0.13554494
64	0xbdb56d1e	-0.08858703
65	0x3e8e13cd	0.27749482
66	0x3cf8d54a	0.030375142
67	0x3f8cb88f	1.0993823
68	0x3d37c100	0.044861794
69	0xbff75404	-1.9322515
70	0x3d846ae4	0.064657
71	0xbf8f7aea	-1.1209385
72	0xbea64af0	-0.32479048
73	0xbd06f4aa	-0.032948174
74	0x3f8f135b	1.1177782
75	0x3de96377	0.113959245
76	0x3e8f36b7	0.27971432
77	0xbd6a1d90	-0.0571571
78	0x3ea6e4ff	0.32596585
79	0xbe0b4d06	-0.13603601
80	0x3eb2d698	0.34929347
81	0x3f779bfd	0.96722394
82	0xbe2c860d	-0.16848011
83	0x3c42ec29	0.011897125
84	0xbe18137f	-0.14851187
85	0xbfcbf1b8	-1.5933142
86	0x3dd70195	0.104983486
87	0xbd07f86d	-0.0331959
88	0xbd4dc72b	-0.05023877
89	0x3f48b521	0.7840138
90	0xbd22c8b3	-0.039742183
91	0xbcd0eade	-0.025502618
92	0x3e991d45	0.29905143
93	0xbd3addd0	-0.045621693
94	0x3d71e156	0.059052788
95	0xbf7fd133	-0.9992859
96	0xbff75635	-1.9323183
97	0x3f2efe6b	0.6835696
98	0xbda51621	-0.080608614
99	0xc03eef22	-2.9833455
100	0x3f053531	0.5203429
101	0x3ee37d56	0.4443156
102	0xbfcd44d5	-1.6036631
103	0xbf108e3e	-0.56467044
104	0xbe059279	-0.13044156
105	0x3eaa24f8	0.3323133
106	0xbe9d3344	-0.30703175
107	0x3f05ba7b	0.5223767
108	0xbc984dea	-0.01859184
109	0xbd6067f7	-0.05478665
110	0xbf17da1f	-0.593172
111	0x3d47dd5d	0.048795093
112	0x3ba52b9e	0.0050406
113	0xbe0e86e1	-0.1391864
114	0xbf3eaae0	-0.74479485
115	0xbf0a79df	-0.5409221
116	0xbb0e4db5	-0.0021713797
117	0xbf3ff510	-0.7498331
118	0xbcd80497	-0.026369376
119	0xbe15ab34	-0.1461609
120	0xbe49432b	-0.19654529
121	0xbfbda2d9	-1.4815322
122	0xbf3aeab4	-0.7301438
123	0xbdda9295	-0.106724896
124	0x3f967e3e	1.1757276
125	0xbdf8f09f	-0.1215527
126	0x3ee3f810	0.44525194
127	0x3d78978c	0.0606914
128	0xbf3081f5	-0.689483
129	0xbc980b2d	-0.018560017
130	0x3e372397	0.1788467
131	0x3e81e579	0.25370386
132	0x3d874836	0.0660557
133	0xbe3db6c1	-0.18526746
134	0xbd94dedd	-0.0726907
135	0x3f4ec48f	0.80768675
136	0x3d1ae430	0.037815273
137	0xbf99c782	-1.201401
138	0x3da88310	0.08228123
139	0xbe35009a	-0.1767601
140	0x3d6145f6	0.05499836
141	0x3d452607	0.04813197
142	0x3f1062db	0.5640084
143	0xbb4495bf	-0.0029996482
144	0x3cb441de	0.022004064
145	0xbea1681f	-0.3152475
146	0x3f3aa98e	0.7291497
147	0xbf1c6c4a	-0.61102736
148	0x3d49b93f	0.04924893
149	0x3ec0aae3	0.37630376
150	0xbfad425e	-1.3535879
151	0xbe494c2f	-0.19657968
152	0x3f04f5b6	0.51937425
153	0x3ec447f9	0.3833616
154	0x3d9ef0d3	0.07760777
155	0x3cf5f2a2	0.030022923
156	0xbe96d7e4	-0.29461586
157	0x3d0e4689	0.034735236
158	0xbe1221cc	-0.14270705
159	0x3d61aedc	0.0550984
160	0x3e6d7f3f	0.23193072
161	0xbd23fc7e	-0.040035717
162	0xbe1d464b	-0.15358846
163	0xbd701cb4	-0.058621123
164	0xbfcbd030	-1.5922909
165	0x3ef7f818	0.48431468
166	0xbe058e98	-0.13042676
167	0x3e2b9331	0.16755368
168	0x3d3c5a61	0.04598463
169	0x3ebc61eb	0.36793455
170	0xbe710f6f	-0.23541044
171	0x3e51da18	0.20493352
172	0x3dfc7b12	0.12328161
173	0xbd6494a1	-0.055805806
174	0xbec9c1aa	-0.39405566
175	0x3d720a27	0.059091713
176	0x3e4a1566	0.19734725
177	0xbb7c6400	-0.0038511753
178	0xbf2e0423	-0.6797506
179	0xbd4eea6c	-0.05051653
180	0xbecfc894	-0.40582716
181	0xbf96d09b	-1.1782411
182	0x3e8bd15e	0.27308172
183	0xbe4e35e7	-0.2013775
184	0xbdd493ff	-0.103797905
185	0xbf747573	-0.95491713
186	0x3f87c86d	1.060804
187	0x3e8be409	0.27322415
188	0xbd51371e	-0.051077954
189	0x3eecd62b	0.46257147
190	0xbe130a39	-0.14359368
191	0xbdcda9b4	-0.10042134
192	0xbec4eefd	-0.38463584
193	0x3de80ea2	0.11330916
194	0xbf3f8a73	-0.7482063
195	0xbf238c15	-0.63885623
196	0x3e7c3336	0.2462891
197	0xc07345c2	-3.8011327
198	0xbe57da32	-0.21079329
199	0xbf63eec4	-0.890362
200	0xbe2f6b10	-0.17130685
201	0xbee9d3ed	-0.456695
202	0xbee8f6b3	-0.45500717
203	0x3f46ec91	0.7770472
204	0xbe37ac8b	-0.17936914
205	0xbebb94e7	-0.3663704
206	0x3f2c57e2	0.673216
207	0xbf3625fb	-0.71151704
208	0x3ead76e7	0.33879778
209	0x3b00d9f7	0.0019661167
210	0xbf22ea59	-0.63638836
211	0xbdc380ec	-0.09546074
212	0xbeab4834	-0.33453524
213	0x3db9a647	0.09064918
214	0x3f2dc312	0.6787578
215	0xbf88ce5a	-1.0687973
216	0xbc9f98d7	-0.01948206
217	0x3f73bf81	0.95214087
218	0xbe13976a	-0.14413229
219	0x3ea56d04	0.32309735
220	0xbe163aeb	-0.14670913
221	0xbf80b701	-1.0055848
222	0xc02b98c0	-2.6811981
223	0x3d10459e	0.035222642
224	0xbfd63f24	-1.6738019
225	0xbd97569e	-0.07389568
226	0xbfd1d0cb	-1.6391844
227	0x3cf32977	0.029682858
228	0x3f34bcab	0.70600384
229	0xbdc37434	-0.09543648
230	0xbe5a4e10	-0.21318841
231	0x3e0643ed	0.13111849
232	0x3e08b04a	0.13348499
233	0xbd773808	-0.06035617
234	0xbda2620c	-0.07928857
235	0x3d777de5	0.060422797
236	0x3e54721c	0.20746654
237	0xbfa5eb05	-1.2962347
238	0xbe2b61d9	-0.16736545
239	0x3e1f173c	0.15536207
240	0x3ddce75c	0.10786316
241	0xbe023e3b	-0.12719052
242	0x3f4456ce	0.76694953
243	0x3e27bfda	0.1638178
244	0xbe892dec	-0.26792848
245	0x3e307a48	0.17234147
246	0x3eb50862	0.35357958
247	0x3f184445	0.5947917
248	0xbdc1c3e0	-0.09461188
249	0x3f10b0fd	0.5652006
250	0x3efa045f	0.4883146
251	0x3e83943e	0.25699037
252	0x3f12259e	0.5708865
253	0xbeb058ae	-0.34442657
254	0xbdba1888	-0.0908671
255	0xbe3bbc3d	-0.18333526

4.bias f4 [24]
0	0xbef5e33e	-0.48024935
1	0x3d0c50e2	0.034256823
2	0x3dc5fd21	0.09667421
3	0xbe9b1add	-0.30293933
4	0xbe5d961b	-0.21639292
5	0xbe1d0844	-0.15335184
6	0xbdbe65be	-0.092967495
7	0xbf0e05c4	-0.5547755
8	0xbebbdd18	-0.3669212
9	0xbf2d71fa	-0.6775204
10	0xbe5f9c58	-0.21836984
11	0xbede11b6	-0.43372887
12	0x3e7bd382	0.24592403
13	0x3f175411	0.5911265
14	0x3dc80968	0.09767419
15	0x3ea11b34	0.31466067
16	0x3eef80bc	0.46777904
17	0x3ec09e07	0.37620565
18	0x3ef6f020	0.48230076
19	0xbe803f73	-0.25048408
20	0x3e138cc6	0.1440917
21	0x3d8ba991	0.068194516
22	0xbe3e3e41	-0.18578435
23	0x3c6ef83b	0.01458555
