models/net_model_2_h_layers_50_50.pth (torch, 19735 bytes, 6 tensors)

0.weight f4 [50, 12]
0	0x3db5b1eb	0.08871826
1	0x3fa5e334	1.2959962
2	0x3f7a4688	0.9776387
3	0xbfcf8d8d	-1.6215073
4	0x3f11c697	0.5694365
5	0x3e0d8367	0.13819657
6	0x3eaabc67	0.33346865
7	0xbf23081a	-0.63684237
8	0xba92f0f2	-0.0011210723
9	0x3f271633	0.6526825
10	0xbf9f0d7d	-1.2425991
11	0xbf55e745	-0.83556014
12	0x3f48d75b	0.78453606
13	0xbe205ca6	-0.15660343
14	0x3fb5d40f	1.420534
15	0x3eca8c3a	0.3956011
16	0x3e74fec9	0.23925318
17	0xbf4a2ce1	-0.7897473
18	0xbf9a94ec	-1.2076697
19	0x3faff508	1.3746653
20	0x3f39b730	0.72545147
21	0x3ec32eb3	0.38121566
22	0xbf58fa3d	-0.84756833
23	0xbf658ab5	-0.89664775
24	0x3d6a3b68	0.05718556
25	0x3df9f65c	0.122051924
26	0x3e5b04c4	0.21388537
27	0xbe62b09d	-0.22137685
28	0x3e2e3bec	0.17015046
29	0xbd0c0c28	-0.03419128
30	0x3b705800	0.0036673546
31	0xbe11be9a	-0.14232865
32	0x3e893c4a	0.2680381
33	0xbdcd38fa	-0.10020633
34	0xbe263611	-0.16231562
35	0x3e26c646	0.16286573
36	0x3f34fc90	0.7069788
37	0xbe668273	-0.225107
38	0x3de1f3e9	0.1103285
39	0x3f414016	0.7548841
40	0xbfd5c994	-1.6702142
41	0x3f277d0f	0.654252
42	0xbecf8e70	-0.4053836
43	0x3f67ecc3	0.90595645
44	0x3f1516b0	0.58237743
45	0xbf67a239	-0.9048191
46	0x3f325ac9	0.6966978
47	0xbfb94052	-1.4472754
48	0x3d2ba7b0	0.041907966
49	0x3e763c3c	0.24046415
50	0xbe153db1	-0.14574315
51	0xbe3bfe7e	-0.183588
52	0x3db170cc	0.086640924
53	0xbdb3311c	-0.08749601
54	0x3e920348	0.28518128
55	0x3db3eb28	0.08785087
56	0x3e89631e	0.26833433
57	0x3e91d6a2	0.28484064
58	0x3c365ce0	0.011130542
59	0xbc3358c0	-0.010946453
60	0xbe244725	-0.16042764
61	0xbea734a2	-0.32657343
62	0x3e0d1765	0.13778456
63	0xbdc7fca7	-0.097649865
64	0xbcd547e3	-0.026035255
65	0xbe69d18d	-0.22833844
66	0xbe2cd67a	-0.16878691
67	0xbe25bb33	-0.16184692
68	0xbe4bb975	-0.19894965
69	0x3de44fc0	0.111480236
70	0xbe83ada9	-0.2571843
71	0xbe715257	-0.23566566
72	0x3fa7eddc	1.3119464
73	0x3ecdbc78	0.40182853
74	0xbe908a49	-0.28230503
75	0xbfea4152	-1.8301184
76	0xbe1c0c95	-0.15239175
77	0x3f5589bf	0.8341331
78	0x3f8c8db5	1.0980746
79	0x3f6f0389	0.9336477
80	0xbf9639fc	-1.1736445
81	0xbf38bb23	-0.7216055
82	0xbfa3d152	-1.2798254
83	0x3f1c6fa2	0.6110784
84	0xbe9202e1	-0.2851782
85	0x3e751180	0.23932457
86	0x3e1182ca	0.14210048
87	0xbe226ef7	-0.15862642
88	0x3d391b18	0.045191854
89	0xbe8ca318	-0.2746818
90	0x3e68def4	0.227413
91	0xbe226694	-0.15859443
92	0xbdf087d4	-0.11744657
93	0x3e402cae	0.18767044
94	0x3c7bfd80	0.015380263
95	0x3e59848c	0.21241969
96	0xbd5024fc	-0.05081652
97	0xbe926cde	-0.28598684
98	0xbe50e644	-0.2040034
99	0x3d95167c	0.07279679
100	0xbe829dc9	-0.25511006
101	0xbe40984e	-0.188081
102	0xbd6d5b7c	-0.057948574
103	0x3e7337e4	0.2375179
104	0xbda6c1e0	-0.081424475
105	0x3dece864	0.115677625
106	0xbce8c910	-0.028416187
107	0x3e56f2c0	0.2099104
108	0x3f920fae	1.1411035
109	0xbf7fa74f	-0.9986467
110	0x3f8513c5	1.0396658
111	0xbf83c058	-1.0293074
112	0x3ecdd4be	0.40201372
113	0x3ed788f5	0.42096677
114	0xbf5d56fd	-0.8646086
115	0x3f86591a	1.0495942
116	0xbf4bee92	-0.79660904
117	0x3f692b8a	0.9108206
118	0x3c9c8016	0.019104045
119	0xbeb22327	-0.34792444
120	0xbe81fb1e	-0.253869
121	0x3c9846a0	0.018588364
122	0xbe338cab	-0.1753413
123	0xbd84fb68	-0.064932644
124	0x3e6b1670	0.22957778
125	0xbe92d62d	-0.28679028
126	0xbe752754	-0.23940784
127	0x3e63616c	0.22205132
128	0x3d80add8	0.06283158
129	0x3dfa30c4	0.122163326
130	0xbdf966e0	-0.12177825
131	0x3db12c34	0.08651009
132	0x3f256397	0.6460509
133	0xbef7cd62	-0.48398882
134	0x3f50b30e	0.81523216
135	0xbfdf850d	-1.7462479
136	0x3fb1edca	1.3900692
137	0xbda5f865	-0.08104018
138	0x3f3f86f1	0.7481528
139	0x3f535952	0.82558167
140	0xbfc80e9e	-1.5629461
141	0x3faa4806	1.330323
142	0xbf9959ae	-1.1980493
143	0x3fafda09	1.3738414
144	0x3e290bc0	0.16508389
145	0xbe89208d	-0.26782647
146	0xbe8bde26	-0.27317923
147	0xbd445c60	-0.04793966
148	0xbd65d5e0	-0.05611217
149	0xbe14fb2e	-0.14548942
150	0x3e586b3c	0.21134657
151	0xbd2915a4	-0.041280404
152	0xbd6d4d98	-0.057935327
153	0xbe5c63a6	-0.21522388
154	0xbcea09b0	-0.028569072
155	0x3c06f1e0	0.008236378
156	0x3daaba0e	0.08336268
157	0x3d6f6b0c	0.058451697
158	0xbe47baf3	-0.19504909
159	0x3e11d4b9	0.14241304
160	0xbe906460	-0.2820158
161	0xbe732b96	-0.23747095
162	0x3e23d4be	0.15999123
163	0xbeb947bd	-0.36187544
164	0xbd8c042d	-0.06836734
165	0x3d3c4909	0.04596809
166	0xbd20763b	-0.039175253
167	0xbe34c34c	-0.17652625
168	0xbe8680cc	-0.2627014
169	0x3e805fd5	0.25073114
170	0x3e0e0d2f	0.13872217
171	0x3fdbf410	1.7183857
172	0xbeca81f3	-0.39552268
173	0x3e9bd400	0.3043518
174	0xbedbc153	-0.42920932
175	0x3d36d8e8	0.04464045
176	0x3f3a5faa	0.7280222
177	0xbe39bcfd	-0.181385
178	0x3f938eb8	1.1527929
179	0xbf7608a8	-0.9610696
180	0xbfbe1bc4	-1.4852223
181	0x3fd15629	1.6354419
182	0x3fbba706	1.4660347
183	0xbf48adba	-0.78390086
184	0xbeb6ccf0	-0.3570323
185	0xbf98900f	-1.1918963
186	0x3f38b19a	0.72146
187	0xbf06b941	-0.52626425
188	0x3f0692d4	0.5256779
189	0x3fc922de	1.5713766
190	0xbf486698	-0.78281546
191	0xbf8e0737	-1.1095952
192	0xbf61e48a	-0.8823935
193	0x3f8ba139	1.0908576
194	0x3e8958fb	0.268257
195	0x3f5e551b	0.8684861
196	0xbe1af573	-0.15132694
197	0xbfed0cdd	-1.851955
198	0x3ef92cd6	0.4866702
199	0x3f195cbf	0.59907144
200	0x4002fc3d	2.0466454
201	0xbe34e8b2	-0.17666891
202	0xbf7e95cd	-0.9944733
203	0xbeec818a	-0.4619258
204	0xbdfad5ac	-0.12247786
205	0x3ddf4c38	0.109032094
206	0xbe6b42a0	-0.22974634
207	0xbe1007a7	-0.14065419
208	0xbe458e8c	-0.19292659
209	0xbd8a94ea	-0.06766684
210	0x3bc60ac0	0.006043762
211	0xbe7433f7	-0.23847948
212	0xbe6f034d	-0.23341103
213	0x3dc5e4f8	0.09662813
214	0xbb6b1b00	-0.0035874248
215	0x3cdf9ac0	0.02729547
216	0x3c792040	0.015205443
217	0x3e2a92e0	0.16657591
218	0xbcf41250	-0.029793888
219	0xbc865ee0	-0.016402662
220	0x3e52d32a	0.20588365
221	0x3c768cc0	0.015048206
222	0x3e0ef8da	0.13962117
223	0xbe0b9f29	-0.13634934
224	0x3e552c7e	0.20817754
225	0xbe63da2c	-0.22251195
226	0xbe06dc0c	-0.13169879
227	0xbd2cef40	-0.042220354
228	0x3e79b7cc	0.24386519
229	0xbf1db9f4	-0.61611867
230	0x3fa2fe13	1.2733787
231	0x3e50aa62	0.20377496
232	0xbfb48c65	-1.4105345
233	0x3e8ccce6	0.27500075
234	0xbeef3365	-0.46718898
235	0x3fb38c1b	1.4027132
236	0xbea439da	-0.32075387
237	0xbd8cb405	-0.068702735
238	0x3ea16930	0.31525564
239	0xbfbf924b	-1.496652
240	0xbf1a94ae	-0.6038312
241	0x3f5f730a	0.8728491
242	0x3f481e8b	0.78171605
243	0xbfa8a3c4	-1.3174977
244	0x3f560b16	0.83610666
245	0xbf862c50	-1.0482273
246	0x3f8296a0	1.0202217
247	0xbe8528dc	-0.26007736
248	0x3e104e0f	0.14092277
249	0x3f7bd146	0.983662
250	0xbfc69be7	-1.5516328
251	0x3f49f175	0.7888406
252	0x3d474d40	0.048657656
253	0xbe433d06	-0.19066247
254	0xbe817976	-0.2528798
255	0xbe6f023f	-0.233407

0.bias f4 [50]
0	0x3e0b645f	0.13612507
1	0x3d78b014	0.060714796
2	0xbe0cc825	-0.13748224
3	0x3e2315e9	0.15926327
4	0xbe6ddde2	-0.23229173
5	0xbd24979a	-0.04018364
6	0x3e0cbff9	0.13745107
7	0xbe86c63e	-0.26323122
8	0xbe868622	-0.2627421
9	0x3e1ae3b6	0.15125927
10	0xbdcef7e2	-0.10105874
11	0x3d7d91a4	0.06190647
12	0xbd5bb458	-0.053638786
13	0xbe558919	-0.2085308
14	0xbd806533	-0.06269302
15	0x3dfe09dc	0.12404224
16	0x3e7ebb4e	0.24876139
17	0xbe28f192	-0.16498402
18	0xbe8400dc	-0.25781906
19	0x3ea155b8	0.3151071
20	0x3de80c8c	0.11330518
21	0xbe5f1176	-0.21784005
22	0x3e5dd554	0.2166341
23	0x3e1a1af9	0.15049352
24	0x3de4489c	0.11146662
25	0xbe6d16fe	-0.23153302
26	0xbdd0d092	-0.10196032
27	0xbe5560a6	-0.2083765
28	0x3e680e0b	0.22661607
29	0x3de2b79f	0.11070179
30	0xbe3dd0a8	-0.18536627
31	0xbe79288a	-0.2433187
32	0x3e362b36	0.17789921
33	0x3e56a291	0.20960452
34	0x3e732281	0.23743631
35	0xbe4f98f1	-0.20273186
36	0xbe36d52c	-0.17854756
37	0x3e712651	0.23549773
38	0xbe27ab87	-0.16374026
39	0xbe06a4c7	-0.13148795
40	0x3e127aa6	0.14304599
41	0x3e77d678	0.24202907
42	0x3e5e2630	0.21694255
43	0xbe8e682b	-0.2781385
44	0x3e909e99	0.28246
45	0x3d8b793a	0.068102315
46	0xbe34e1fe	-0.17664334
47	0xbdbef920	-0.093248606
48	0x3e3ee0cd	0.18640442
49	0xbe3bac8c	-0.1832754

2.weight f4 [50, 50]
0	0xbd7cbbbd	-0.06170248
1	0xbb30d146	-0.0026980205
2	0x3de9b0be	0.11410664
3	0xbdd7ef90	-0.1054374
4	0x3df12ef2	0.11776532
5	0xbddf1a63	-0.10893705
6	0x3cb2fee9	0.021850066
7	0x3bedc360	0.0072559565
8	0x3d9432f6	0.072362825
9	0x3e4b57ed	0.1985776
10	0xbdefc374	-0.117072016
11	0x3e2d0b2b	0.16898791
12	0xbe05d334	-0.13068849
13	0x3d3fc5e0	0.046819568
14	0xbd31d417	-0.043415155
15	0x3d631a8b	0.055445235
16	0xbe5e0033	-0.21679763
17	0x3c7bad50	0.015361145
18	0x3d957d66	0.072993085
19	0x3ba38d4a	0.004991208
20	0x3d985cf9	0.07439608
21	0xbdb88e8b	-0.09011563
22	0xbdce1126	-0.100618646
23	0xbde40d3e	-0.11135338
24	0xbd6d2579	-0.057897065
25	0x3dad4e18	0.08462161
26	0xbd900efd	-0.07034109
27	0x3d2fbaf0	0.042902887
28	0x3d3f2d9d	0.04667436
29	0xbde13be4	-0.10997751
30	0x3d72d474	0.059284642
31	0x3c9ecb10	0.019383937
32	0xbe589e7d	-0.21154208
33	0x3d177527	0.03697696
34	0x3c99d130	0.018776506
35	0x3e0ac75d	0.13552614
36	0x3c301920	0.010748178
37	0xbdd10d67	-0.102076344
38	0x3d2ee148	0.042695314
39	0xbe03e851	-0.1288159
40	0xbdf454ec	-0.1193026
41	0xbdc5ae79	-0.09652419
42	0xbe0d36ff	-0.1379051
43	0x3dfe5486	0.12418465
44	0xbd9b33de	-0.07578252
45	0xbde87e38	-0.11352199
46	0xbd8418ab	-0.064500175
47	0xbd9d8ecc	-0.07693252
48	0xbcbe1a39	-0.023205863
49	0x3d26281c	0.040565595
50	0x3db18d59	0.08669538
51	0x3f2a4905	0.6651767
52	0xbc856758	-0.01628463
53	0x3ea5c9c5	0.323805
54	0x3e0e802b	0.1391608
55	0x3dd8ad9e	0.1057999
56	0x3f18fffc	0.597656
57	0x3cbfed58	0.023428604
58	0x3cf94b88	0.030431524
59	0x3fbb6ea6	1.4643142
60	0xbdadb826	-0.08482389
61	0x3fa71cfa	1.3055718
62	0x3dcd9c7a	0.10039611
63	0x3cb49cf0	0.02204749
64	0x3e6eb7eb	0.23312347
65	0xbf5ad4a8	-0.8548074
66	0xbf8d3e97	-1.1034726
67	0xbe0b1870	-0.13583541
68	0xbdd32128	-0.103090584
69	0x3f99ecb9	1.2025367
70	0xbea0742a	-0.31338626
71	0x3dcaf646	0.09910254
72	0x3e25807f	0.16162299
73	0xbea50af2	-0.32234913
74	0x3f9dbc08	1.2323008
75	0xbd733a0e	-0.059381537
76	0x3defde72	0.1171235
77	0x3de2fbfa	0.11083217
78	0xbe25b7d2	-0.16183403
79	0xbff27dde	-1.8944662
80	0xbd3b234c	-0.04568796
81	0xbba97520	-0.005171433
82	0xbf37eb7f	-0.71843714
83	0xbf906b32	-1.1282713
84	0x3edc9a38	0.4308641
85	0x3c508632	0.012727307
86	0xbded76ee	-0.1159495
87	0xbd596d6b	-0.053082865
88	0xbd8f2bae	-0.06990753
89	0x3c9d4f60	0.019202888
90	0xbd73cace	-0.05951958
91	0xbf416543	-0.7554514
92	0x3f9cf8d7	1.226344
93	0xbe04a9b3	-0.1295536
94	0x3ed117ca	0.40838462
95	0x3f3aca11	0.7296458
96	0x3dc435ec	0.09580597
97	0x3d663f2f	0.0562126
98	0xbd277458	-0.04088244
99	0xbd0a16be	-0.033713095
100	0xbe838ae1	-0.25691894
101	0xbecd4eaa	-0.40099078
102	0xbdac8a72	-0.08424844
103	0x3f249e16	0.6430372
104	0x3dbb93e4	0.09159067
105	0x3db4d428	0.08829528
106	0xbea061a8	-0.31324506
107	0x3dce68d2	0.10078587
108	0xbc91f868	-0.017818645
109	0xbf80ab32	-1.0052245
110	0xbc9e9110	-0.01935628
111	0xbfb9cce4	-1.4515653
112	0x3bc66440	0.006054431
113	0xbcf3db7d	-0.029767746
114	0x3f920504	1.1407781
115	0xbf125d38	-0.5717349
116	0x3e215c01	0.15757753
117	0xbe082a23	-0.13297324
118	0x3e1020e9	0.14075054
119	0x3e461869	0.19345249
120	0xbf686ec4	-0.90794015
121	0x3c9122c8	0.01771678
122	0x3fd0aa86	1.630204
123	0xbe189913	-0.14902143
124	0xbf321096	-0.6955656
125	0xbd032e4e	-0.03202658
126	0xbd1b0314	-0.037844732
127	0x3dbd6192	0.09247126
128	0x3fd2b9d5	1.6462961
129	0x3f941da3	1.1571544
130	0xbe0643b9	-0.13111772
131	0x3dc1b8f2	0.09459104
132	0x3ff8d5a4	1.9440198
133	0x3f6bfdf4	0.92184377
134	0x3eeb6b3e	0.45980257
135	0x3e05895c	0.1304068
136	0xbddfccad	-0.10927711
137	0xbd9c4727	-0.07630759
138	0x3d9b05a2	0.07569434
139	0xbd7542b8	-0.05987808
140	0x3f1643fa	0.58697474
141	0xbf083c9f	-0.532175
142	0x3dd96084	0.10614112
143	0xbd434780	-0.04767561
144	0x3e97c9c1	0.29646114
145	0x3e9e3028	0.30896115
146	0xbd29fdac	-0.041501686
147	0xbd97ecd8	-0.07418221
148	0xbf2b013e	-0.6679877
149	0xbe054986	-0.13016328
150	0x3c833362	0.016015712
151	0xbb299882	-0.0025878255
152	0xbdf4c3a4	-0.11951378
153	0xbe2130d3	-0.15741281
154	0xbd892dc8	-0.06698185
155	0x3c6546c0	0.013993919
156	0xbca7bc2a	-0.020475466
157	0xbda55d5a	-0.08074446
158	0x3d942a1e	0.07234596
159	0xbd478f0a	-0.048720397
160	0x3d3afdc0	0.04565215
161	0x3d6bc300	0.057559013
162	0x3dfef41a	0.124489024
163	0xbc05a9b0	-0.008158132
164	0xbb740600	-0.0037235022
165	0x3bfc7647	0.0077045294
166	0x3d44b7a1	0.048026685
167	0xbd191b64	-0.037379637
168	0xbd27e09c	-0.04098569
169	0xbe332859	-0.1749586
170	0x3d2b69c3	0.04184891
171	0xbdc45428	-0.09586364
172	0xbdfc437e	-0.123175606
173	0xbd7c22e5	-0.061556716
174	0x3d88377b	0.06651207
175	0xbc95099c	-0.018193059
176	0xb9875000	-0.0002580881
177	0xbdec2ce5	-0.115320005
178	0xbd63b68b	-0.05559401
179	0xbda13a2d	-0.07872424
180	0xbdaf131e	-0.08548568
181	0x3dadaae6	0.08479862
182	0x3d536804	0.05161287
183	0x3d7fce06	0.06245234
184	0xbdaabae1	-0.083364256
185	0xbe03d912	-0.12875775
186	0x3c4bfc20	0.012450248
187	0x3c667c07	0.014067656
188	0xbe0b114a	-0.13580814
189	0x3dd0280a	0.10163887
190	0x3db559a8	0.08854991
191	0x3c8796a0	0.016551316
192	0x3b88c2cb	0.0041736118
193	0xbd8a9172	-0.06766023
194	0xbe3dca69	-0.18534245
195	0xbdb1b3b2	-0.08676852
196	0x3c168cd0	0.009188846
197	0xbdd8e2ba	-0.1059012
198	0xbe2d7df0	-0.16942573
199	0xbc06fba0	-0.008238703
200	0xbe4afba7	-0.1982256
201	0xbe4fe97b	-0.2030391
202	0x3dfdff0a	0.124021605
203	0xbd8fc0ba	-0.070191815
204	0xbd268c3e	-0.04066109
205	0x3dc244e8	0.09485799
206	0xbdd304a9	-0.10303623
207	0xbd951ef0	-0.072812915
208	0xbc2e3470	-0.010632619
209	0xbdcf8715	-0.10133187
210	0x3dbb5ea2	0.09148909
211	0xbdd9dc2f	-0.106377
212	0xbc4b43e0	-0.012406319
213	0x3ddab7d8	0.10679597
214	0x3a8298ad	0.0009963714
215	0xbe10b092	-0.14129856
216	0xbd1fcecb	-0.039015573
217	0xbdb491ba	-0.08816858
218	0x3df37a0a	0.118885115
219	0xbe5cc635	-0.21559985
220	0xbe19389c	-0.14963001
221	0x3d3055ec	0.04305069
222	0xbe5bbcfd	-0.21458812
223	0xbe89e894	-0.26935256
224	0x3e036341	0.12830831
225	0x3df2d0a2	0.118562
226	0xbd61f512	-0.055165358
227	0x3d0bf95c	0.034173355
228	0xbe3a0dda	-0.18169346
229	0xbcd6ac73	-0.026205277
230	0x3d8d4a54	0.068989426
231	0x3d8f271e	0.06989883
232	0xbe081cb3	-0.13292198
233	0xbd88abfe	-0.0667343
234	0xbe3c3473	-0.18379383
235	0xbc835f20	-0.01603657
236	0x3cff2920	0.03114754
237	0xbc376b68	-0.011195041
238	0x3d561748	0.052268296
239	0x3d8d7ee4	0.06908968
240	0xbe3bd7fe	-0.18344113
241	0xbdaef03b	-0.08541914
242	0xbdd7aed6	-0.10531394
243	0x3dc487ac	0.0959619
244	0xbe0102bc	-0.125987
245	0xbda9562e	-0.082683906
246	0x3d493118	0.049119085
247	0xbdd07381	-0.101782806
248	0xbe762518	-0.24037588
249	0x3dda4c88	0.106591284
250	0x3e93019f	0.28712174
251	0xbf03b817	-0.51452774
252	0xbd97ef1c	-0.07418653
253	0xbe7bdbbb	-0.2459554
254	0x3cb4dc68	0.022077754
255	0x3e12bbb0	0.1432941

2.bias f4 [50]
0	0xbdd7fa24	-0.105457574
1	0x3e95cfa7	0.2925999
2	0x3ecf5470	0.40494108
3	0xbde0d5d3	-0.10978284
4	0xbe836cf2	-0.25669056
5	0x3e630071	0.22168137
6	0xbe304828	-0.17215025
7	0x3d0f6a2e	0.03501337
8	0xbd01e5bc	-0.031713232
9	0xbdde36b8	-0.108502805
10	0xbe1de790	-0.15420365
11	0xbd97b690	-0.07407868
12	0x3ecd8fe0	0.4014883
13	0xbdf2d4e6	-0.118570134
14	0xbe00884a	-0.1255199
15	0x3dfe8d79	0.124293275
16	0xbe1615f2	-0.14656809
17	0x3ec18f79	0.37804773
18	0x3dfc6d48	0.12325531
19	0x3f02e25e	0.5112666
20	0x3cbfa083	0.023391968
21	0x3e47d161	0.19513465
22	0x3db13415	0.08652512
23	0xbe706652	-0.23476532
24	0xbddc4b8b	-0.10756596
25	0xbbc2cd34	-0.0059448723
26	0x3d8f1e47	0.06988197
27	0xbddf4270	-0.10901344
28	0xbea0cdef	-0.31407115
29	0xbd3a7798	-0.04552421
30	0x3cbaf3db	0.022821357
31	0x3d6ca88e	0.057777934
32	0x3e3f59d6	0.18686613
33	0x3e5883e3	0.21144061
34	0xbdee7288	-0.11642939
35	0xbd7d3c9d	-0.061825383
36	0xbe10c95d	-0.14139314
37	0xbea7ca67	-0.32771608
38	0x3d39e020	0.045379758
39	0xbe815d2a	-0.2526639
40	0xbdceaef0	-0.100919604
41	0x3eaf4feb	0.3424066
42	0x3ea96044	0.33081257
43	0x3e8027c2	0.25030333
44	0xbd9a462c	-0.075329155
45	0x3e4d820c	0.2006914
46	0xbd930211	-0.071781285
47	0x3e83c648	0.25737214
48	0xbcf82d44	-0.030295022
49	0x3ea6ca40	0.3257618

4.weight f4 [24, 50]
0	0xbc445554	-0.011983234
1	0x3ea7a957	0.32746384
2	0xbd87a83c	-0.06623885
3	0x3d4b826b	0.049684923
4	0x3d6e9641	0.058248762
5	0xbf78c95c	-0.9718225
6	0xbe0ec713	-0.13943128
7	0xbca47dd6	-0.020079535
8	0x3c11ceb0	0.008899376
9	0xbe3cc6ff	-0.18435286
10	0xbd045884	-0.032310978
11	0xbd876129	-0.06610329
12	0xbfa8663f	-1.3156203
13	0x3c830443	0.015993243
14	0xbe7183e9	-0.23585476
15	0xbf58a1b8	-0.84621763
16	0xbd14a510	-0.03629023
17	0xbf029533	-0.5100891
18	0xbf1e6edc	-0.6188791
19	0x3db584d4	0.088632256
20	0x3dfa0c4f	0.12209379
21	0x3f35ee66	0.7106689
22	0x3e30c04a	0.17260852
23	0xbeac24da	-0.33621866
24	0x3dd2daed	0.10295663
25	0xbf045e09	-0.51705986
26	0xbea2a94b	-0.31769785
27	0x3b02ff78	0.0019988697
28	0xbf03f034	-0.51538396
29	0x3d4122bc	0.047152266
30	0x3f3bfc74	0.7343209
31	0x3f212400	0.62945557
32	0xbe3d5c74	-0.184923
33	0xbf11a743	-0.56895846
34	0xbdb8edfc	-0.09029767
35	0xbd4c9c28	-0.04995361
36	0xbe063a4f	-0.1310818
37	0xbb8b02e0	-0.004242286
38	0xbd7edaa6	-0.06222024
39	0xbdaf3338	-0.08554691
40	0xbcdf008c	-0.02722194
41	0x3ee826b9	0.45342043
42	0xbe1bda44	-0.1521998
43	0x3e83621a	0.25660783
44	0x3cf32acb	0.029683491
45	0xbf252f1e	-0.6452502
46	0xbdb80cd7	-0.08986824
47	0x3f4dca3e	0.8038672
48	0x3dd3954a	0.10331209
49	0x3dedb907	0.11607557
50	0xbd9656bf	-0.07340764
51	0xbfe13999	-1.7595702
52	0x3d527e39	0.051389907
53	0xbe0c4646	-0.13698682
54	0x3d2e0b65	0.042491335
55	0x3e0e9994	0.13925773
56	0xbc9e35ec	-0.019312821
57	0x3d909e40	0.07061434
58	0xbd031b6e	-0.03200858
59	0x3e4cd294	0.20002204
60	0xbe63d0c3	-0.22247605
61	0x3de6ba9a	0.1126606
62	0x3ecc1a9f	0.3986406
63	0x3d80b4f7	0.06284516
64	0xbcbb07ae	-0.02283081
65	0x3e8cc7de	0.27496237
66	0x3d04e24b	0.032442372
67	0xbf8e15cf	-1.1100405
68	0x3f452241	0.7700539
69	0xbffc3d7e	-1.9706266
70	0xbf135734	-0.57554936
71	0xbdbfc3f5	-0.09363548
72	0xbdab7fa7	-0.08373957
73	0x3e4e4c92	0.20146397
74	0xbd1c8b07	-0.038218524
75	0x3f3f39b5	0.7469743
76	0xbde6053b	-0.112314664
77	0xbd226438	-0.039646357
78	0xbd5e954b	-0.054341596
79	0xbdafe119	-0.08587856
80	0xbf6597e1	-0.89684874
81	0xbf2388b3	-0.6388046
82	0xbf263d2d	-0.64937097
83	0xbf1604de	-0.58601177
84	0x3b78a7c0	0.0037941784
85	0x3c81263c	0.015765302
86	0x3d4f9d77	0.05068728
87	0xbd612817	-0.054969873
88	0xbe3900a6	-0.18066654
89	0xbe1aa8b1	-0.15103413
90	0x3dbe75b6	0.09299795
91	0xbf2c87bc	-0.67394614
92	0xbf03c4df	-0.51472276
93	0xbc940e35	-0.01807318
94	0xbda83183	-0.082125686
95	0x3f57dffe	0.8432616
96	0x3b923f29	0.0044630957
97	0xbf0a589c	-0.5404146
98	0x3ccfa230	0.025345892
99	0x3f259cff	0.6469268
100	0x3e1de814	0.15420562
101	0x3f26ddb1	0.65182024
102	0xbfa6bb8e	-1.3025987
103	0x3dbda02b	0.09259065
104	0x3d6d1b10	0.057887137
105	0xbee30545	-0.44339958
106	0xbdd70f8c	-0.10501012
107	0xbe1e0314	-0.15430862
108	0x3b46ee00	0.0030354261
109	0x3e006691	0.12539126
110	0xbdd51dda	-0.10406084
111	0x3e83c84d	0.25738755
112	0xbf4079e3	-0.75185984
113	0xbdc1021a	-0.09424229
114	0xbd748688	-0.05969861
115	0xbf130892	-0.5743495
116	0x3cdf82c9	0.027284043
117	0x3f4c569a	0.79819643
118	0xbf1de736	-0.61680925
119	0x3f24203c	0.64111686
120	0x3f23ed3f	0.64033884
121	0xbcf7974a	-0.030223507
122	0x3edd8f79	0.43273523
123	0xbdd6d26a	-0.10489352
124	0xbd91e9fa	-0.071247056
125	0x3e4846fb	0.19558327
126	0xbd8d3990	-0.06895745
127	0xbd8b4f76	-0.06802265
128	0xbe5e8db6	-0.21733746
129	0xbb153ec0	-0.0022772998
130	0x3e5683fb	0.20948784
131	0xbd9fe556	-0.07807414
132	0xbeb9fc84	-0.36325467
133	0xbf1ac3ba	-0.60454905
134	0xbcae0e70	-0.021247119
135	0x3d95e157	0.07318371
136	0xbde1428c	-0.10999021
137	0xbd46da56	-0.048548065
138	0x3a5675b7	0.0008180993
139	0x3d5a971c	0.053366765
140	0xbd954528	-0.07288581
141	0x3e635322	0.22199681
142	0x3ec112ac	0.37709558
143	0xbfc17619	-1.5114166
144	0xbe171cd5	-0.14757092
145	0xbf2944fe	-0.661209
146	0xbcdfc0b9	-0.027313577
147	0x3e052f73	0.13006382
148	0xbd46ddba	-0.0485513
149	0x3ecefb3a	0.40426046
150	0xbd5c5ce3	-0.05379952
151	0xbf51bb87	-0.8192677
152	0x3f1de28c	0.6167381
153	0xbc8d3a74	-0.017239787
154	0xbe12c95b	-0.14334624
155	0xbe12007a	-0.14257994
156	0xbe146604	-0.14492041
157	0x3c60e220	0.013725787
158	0xbcb80dd8	-0.022467539
159	0x3eb97e9c	0.36229408
160	0xbe30e0c8	-0.17273247
161	0xbdad0d55	-0.084498085
162	0x3e9b3529	0.30313995
163	0xbe0fbebd	-0.14037605
164	0xbe052362	-0.13001779
165	0x3efaa81b	0.4895638
166	0xbe3b6d0c	-0.18303317
167	0xbf7dd90e	-0.99159324
168	0x3e2ecb66	0.17069778
169	0xbeb403fc	-0.3515929
170	0xbd843ff2	-0.06457509
171	0xbec7dad6	-0.39034146
172	0xbed2c91a	-0.41169053
173	0xbe9247a8	-0.28570294
174	0xbd857cf8	-0.065179765
175	0xbf8991e7	-1.0747651
176	0xbdb16f37	-0.08663791
177	0x3d50986d	0.050926615
178	0xbebcae3e	-0.36851686
179	0xbcc59358	-0.02411811
180	0xbfa6d2dc	-1.3033099
181	0x3f0aefce	0.5427216
182	0x3f1ac75a	0.60460436
183	0x3d335457	0.043781605
184	0xbe0b6ceb	-0.13615768
185	0xbcc0fb88	-0.02355744
186	0xbdb25c76	-0.08709042
187	0x3d4ed3d6	0.05049499
188	0xbe20217b	-0.15637772
189	0x3dbe02ba	0.09277864
190	0x3d8e281c	0.06941244
191	0xbf1fe341	-0.62456137
192	0x3f2932cf	0.6609315
193	0x3f0241bc	0.5088155
194	0x3d828fad	0.0637506
195	0xbf4b1f9e	-0.7934512
196	0xbe35fcee	-0.17772266
197	0xbf34f20c	-0.70681834
198	0x3d6ab4e8	0.057301432
199	0xbed5a0d9	-0.4172428
200	0xbc70f94c	-0.0147078745
201	0x3eafc400	0.34329224
202	0xbf709173	-0.9397194
203	0xbdd66950	-0.104693055
204	0xbd36d27c	-0.044634327
205	0x3e6f668b	0.23378961
206	0x3d914302	0.07092859
207	0x3d5eb370	0.054370344
208	0xbe080d81	-0.13286401
209	0xbeaf6e26	-0.34263724
210	0xbd2c6eef	-0.042097982
211	0xbe7be5fe	-0.24599454
212	0x3e914d6c	0.2837938
213	0xbdb78444	-0.089607745
214	0xbdc68e88	-0.096951544
215	0xbd7037f9	-0.05864713
216	0xbde1a11c	-0.11017057
217	0x3efa9e58	0.48948932
218	0xbf5969dc	-0.84927154
219	0x3e905bc5	0.28195015
220	0xbeed88f4	-0.4639355
221	0xbf4b0d7e	-0.7931746
222	0xbe6319e9	-0.22177853
223	0xbea9cb80	-0.3316307
224	0xbda738d9	-0.0816514
225	0x3f1b87a8	0.6075387
226	0xbe03359a	-0.12813416
227	0x3d53f6ac	0.051748917
228	0x3eac2ca5	0.3362781
229	0x3d68612c	0.056733295
230	0xbe27492e	-0.1633651
231	0xbf34d85f	-0.70642656
232	0xbf1e6568	-0.61873484
233	0x3edebac9	0.4350188
234	0xbd3e7120	-0.046494603
235	0xbe1920fc	-0.14953989
236	0xbcb28b05	-0.021794805
237	0xbe092892	-0.13394383
238	0xbd0472af	-0.032335933
239	0x3de1e33b	0.11029669
240	0x3d8615de	0.065471396
241	0xbdc5275e	-0.09626649
242	0xbf8caaef	-1.0989665
243	0xbf308da4	-0.68966126
244	0xbe65994c	-0.2242176
245	0x3f0ebeda	0.55759966
246	0xbd50e0d7	-0.050995674
247	0x3ec4d690	0.38444948
248	0x3dcbebbc	0.09957072
249	0xbf0c345b	-0.5476739
250	0xbd744fb3	-0.05964632
251	0xbd61c171	-0.05511612
252	0x3eee2480	0.46512222
253	0xbdd1e987	-0.1024962
254	0xbdde7281	-0.10861684
255	0xbf6f394c	-0.93446803

4.bias f4 [24]
0	0x3e16ddeb	0.14733092
1	0xbd584a9d	-0.05280553
2	0xbebcc96f	-0.36872432
3	0x3d283fcf	0.041076478
4	0xbe25ea52	-0.16202667
5	0xbe801281	-0.25014117
6	0xbd517b5e	-0.051143043
7	0x3cc6c0a2	0.024261776
8	0x3d8e1588	0.069377005
9	0xbeabf0ea	-0.3358224
10	0xbd1ea3cc	-0.038730428
11	0x3daff1ec	0.08591065
12	0xbd989b31	-0.074514754
13	0xbe943ef6	-0.28954285
14	0xbdb37cbc	-0.087640256
15	0x3e579acd	0.21055146
16	0x3e4d13a3	0.20027022
17	0xbe037c2a	-0.12840334
18	0x3e640ff5	0.22271712
19	0x3e584b7c	0.21122545
20	0x3e1ed5ea	0.15511289
21	0x3cb2aee7	0.021811916
22	0x3e2383ce	0.15968248
23	0x3edd8364	0.43264306
