models/net_start_endmodel_2_h_layers_50_50.pth (torch, 19735 bytes, 6 tensors)

0.weight f4 [50, 12]
0	0xbe3abcc5	-0.18236072
1	0x3f100756	0.56261194
2	0xbf120cc9	-0.5705076
3	0xbf3c379a	-0.7352234
4	0x3e4fc0df	0.20288418
5	0xbe834b5d	-0.25643435
6	0x3fdee002	1.7412112
7	0x3e0a1f8e	0.134886
8	0xbf1165ab	-0.5679576
9	0xbf8a2f05	-1.0795599
10	0xbe38e65f	-0.1805663
11	0x3fb1d907	1.3894356
12	0xbb8a8388	-0.0042271055
13	0xbe5e8815	-0.21731599
14	0xbeb9c8c3	-0.36285982
15	0x3dc24a7a	0.094868615
16	0xbe1faea0	-0.15593958
17	0xbd7e835e	-0.062137
18	0xbdeb3661	-0.11484981
19	0x3db8978f	0.090132825
20	0xbe9d253c	-0.3069247
21	0xbeb3de48	-0.35130525
22	0x3da79660	0.08182979
23	0x3ddcfefb	0.10790821
24	0xbf90aa74	-1.1302018
25	0x3f814e91	1.0102102
26	0x3e26fa72	0.16306475
27	0xbf0338cb	-0.51258534
28	0x3eb3a822	0.35089213
29	0x3e946bec	0.28988588
30	0x3f2c75c4	0.67367196
31	0xbffebea8	-1.9901934
32	0xbf18b9c8	-0.5965848
33	0x3fbbebf1	1.4681379
34	0x3ed9d308	0.42543817
35	0x3f15131f	0.582323
36	0x3dbc4ba0	0.09194112
37	0x3e4117f4	0.18856794
38	0x3d43b3c8	0.047778875
39	0xbe2c599a	-0.16831055
40	0xbe01a382	-0.1266003
41	0x3dad9ac8	0.08476788
42	0xbe872415	-0.26394716
43	0x3dd26498	0.10273093
44	0xbe54c58a	-0.2077848
45	0x3e14d8c0	0.14535809
46	0x3df90e78	0.12160963
47	0xbe0074d8	-0.12544572
48	0x3ffa2707	1.954316
49	0xbfc77faf	-1.5585841
50	0x3e0beb7e	0.13664052
51	0xbf5ac025	-0.8544944
52	0x3f892e0e	1.071718
53	0x3f431037	0.76196617
54	0xbeddea95	-0.43343034
55	0x3fbf1882	1.4929354
56	0xbfd3489f	-1.6506537
57	0xbf070b8d	-0.52752
58	0xbf12709d	-0.57203084
59	0x3f833f0f	1.0253619
60	0xbe1dd0ef	-0.15411733
61	0xbcc86037	-0.024459941
62	0xbe635f6d	-0.22204371
63	0xbe43e4e5	-0.19130285
64	0xbe3a2905	-0.1817971
65	0xbe1deeb4	-0.1542309
66	0xbdd1e8d4	-0.102494866
67	0xbe4c307b	-0.19940369
68	0xbe819e87	-0.2531626
69	0xbe9333d9	-0.28750494
70	0x3de4d95c	0.111742705
71	0xbd8aacb6	-0.06771223
72	0xbf03e6ca	-0.5152403
73	0xbfab8831	-1.3400937
74	0x3e737178	0.23773754
75	0x3fac8b2b	1.3479971
76	0xbf375ebc	-0.7162893
77	0x3f10cc88	0.5656209
78	0xbe125fc8	-0.1429435
79	0x3e96217f	0.2932243
80	0xbe99a754	-0.30010474
81	0xbf2735db	-0.6531655
82	0x3fcf6133	1.6201538
83	0x3f0213c8	0.50811434
84	0x3d675380	0.056476116
85	0xbdf16216	-0.117862865
86	0x3e390e4e	0.18071863
87	0xbda9ce04	-0.082912475
88	0x3de11c40	0.109917164
89	0xbe49c3a4	-0.19703537
90	0xbe50dd2c	-0.2039687
91	0xbe7a6f28	-0.24456465
92	0xbe1b8558	-0.15187585
93	0x3d2a2458	0.041538566
94	0x3d99d568	0.07511407
95	0xbd954a7a	-0.07289596
96	0xbdd90f74	-0.105986506
97	0xbe8a72b8	-0.27040648
98	0x3e333c18	0.17503393
99	0x3e438aa4	0.19095856
100	0xbce08cc0	-0.027410865
101	0x3e4f9d3a	0.20274821
102	0x3dbe974c	0.09306201
103	0x3d2d98b8	0.042381972
104	0xbe67ad6f	-0.22624753
105	0x3d954584	0.0728865
106	0x3e858aa0	0.26082325
107	0x3ca13490	0.019678384
108	0x3f4b907f	0.7951736
109	0xbe8073cd	-0.2508835
110	0x3f8398c6	1.0280998
111	0xbf50a8a0	-0.815073
112	0x3eab6b9f	0.33480546
113	0xbee93b48	-0.4555304
114	0xbf7bd5ca	-0.9837309
115	0x3f999177	1.1997517
116	0xb9f95775	-0.00047558142
117	0x3f01e01f	0.50732607
118	0xbf7a9e03	-0.97897357
119	0xbe8b73b8	-0.27236724
120	0x3e310d85	0.17290314
121	0xbe13e108	-0.14441311
122	0xbd238bea	-0.039928354
123	0x3dba03ef	0.090827815
124	0xbdb9789b	-0.09056207
125	0xbddb4297	-0.107060604
126	0xbe14ff12	-0.14550427
127	0x3db8212c	0.08990702
128	0x3cfc43a0	0.030793965
129	0xbdc36d84	-0.09542373
130	0x3afbaeb8	0.001920185
131	0x3c59e7e9	0.013299921
132	0xbd423aeb	-0.04741947
133	0x3e6ae13e	0.22937486
134	0xbf24c119	-0.64357144
135	0xbf3eb149	-0.74489266
136	0x3f8a5b87	1.0809182
137	0xbf386760	-0.7203274
138	0x3fa571c7	1.2925347
139	0x3da51f12	0.08062567
140	0xbe9881f4	-0.29786646
141	0xbe843169	-0.25818947
142	0xbf39f0ee	-0.72633255
143	0x3fb5e316	1.4209926
144	0x3f05fa49	0.5233503
145	0x3f8effd1	1.1171819
146	0xbfc84def	-1.5648783
147	0xbceb4232	-0.028718088
148	0xbedd3e63	-0.4321166
149	0x3fb211ee	1.3911722
150	0x3f363a44	0.71182656
151	0xbf3511f5	-0.70730525
152	0x3f3a6ccd	0.72822267
153	0xbf4dcce9	-0.80390793
154	0x3eaef229	0.3416913
155	0xbf264cd1	-0.6496096
156	0xbf74bf84	-0.9560473
157	0x3ebb6431	0.36599877
158	0x3ecea61f	0.40361115
159	0xbed3148c	-0.41226614
160	0x3f22066c	0.6329105
161	0xbfcc25b4	-1.5949006
162	0x3eba1303	0.3634263
163	0xbe9106eb	-0.2832559
164	0x3ec63876	0.3871495
165	0x3f8dd02b	1.1079153
166	0xbf710039	-0.94140965
167	0x3eee00e7	0.46485063
168	0xbe7395e1	-0.23787643
169	0x3af19000	0.0018429756
170	0xbe38f77b	-0.18063156
171	0x3d1b0b88	0.037852794
172	0x3e0cf876	0.13766655
173	0xbe261cef	-0.16221975
174	0xbe3a82ea	-0.18214002
175	0x3e7cb354	0.24677783
176	0x3dff975c	0.124800414
177	0x3d379e28	0.044828564
178	0x3e88c65a	0.2671383
179	0xbe806c90	-0.25082827
180	0xbe2d0f1f	-0.169003
181	0xbeee7aae	-0.46577972
182	0x3f9945aa	1.1974385
183	0xbf3df360	-0.74199486
184	0x3e2f45f2	0.17116526
185	0xbf7bfdfa	-0.9843441
186	0x3e11bf23	0.14233069
187	0x3fa3f2c5	1.2808462
188	0xbf14a47d	-0.5806349
189	0x3f3c23a9	0.73491913
190	0xbf1b551b	-0.60676736
191	0x3ec9946e	0.39371055
192	0x3f8bc012	1.091799
193	0x3f11cef7	0.5695643
194	0x3e72128a	0.23639885
195	0xbf6142d8	-0.8799262
196	0xbd913331	-0.07089842
197	0x3e069c3c	0.13145536
198	0x3e450074	0.19238454
199	0x3f51c0f5	0.81935054
200	0x3e9ac73d	0.30230132
201	0x3e1158d6	0.14194044
202	0xbff0b568	-1.8805361
203	0xbecf805c	-0.40527618
204	0x3ffbdbaf	1.9676417
205	0xbe89de8f	-0.2692761
206	0xbf4446f4	-0.76670766
207	0xbf9af5a3	-1.2106212
208	0xbfa324ba	-1.2745583
209	0x3ff2ec44	1.8978353
210	0xbeb912a1	-0.36147025
211	0x3efe9fbe	0.4973125
212	0xbf15a140	-0.5844917
213	0xbf692c50	-0.9108324
214	0x3edb1faf	0.4279761
215	0xbf1e0b9f	-0.6173648
216	0x3e2432aa	0.16034952
217	0xbfb02ed6	-1.3764293
218	0x3da89639	0.08231778
219	0x3eff7c57	0.4989955
220	0x3f9046ec	1.1271644
221	0x3f85b69e	1.0446355
222	0xbfe2984f	-1.7702731
223	0xbf12aa29	-0.57290894
224	0xbec0a45b	-0.37625393
225	0x3fb06e37	1.3783635
226	0x3fafcb1f	1.3733863
227	0xbf108f8c	-0.56469035
228	0x3ef89e17	0.48558113
229	0x3ce4f4a7	0.02794869
230	0x3f8ce664	1.100781
231	0xbf9b554c	-1.2135406
232	0x3f4e95af	0.8069715
233	0xbf83a2ae	-1.0284021
234	0x3ec482e1	0.38381103
235	0x3eda4242	0.42628676
236	0xbeb7d814	-0.35907042
237	0x3f8bd8cb	1.0925535
238	0xbfc8edae	-1.5697534
239	0x3f2ffc3c	0.68744254
240	0xbed6d1d5	-0.41956964
241	0xbe3192b0	-0.17341113
242	0xbecaf99d	-0.39643565
243	0xbeade38c	-0.33962667
244	0x3e278ef8	0.16363132
245	0xbe8c0876	-0.27350205
246	0xbe5f3d03	-0.21800618
247	0xbd46910c	-0.04847817
248	0x3e62056a	0.22072378
249	0xbec34ab4	-0.3814293
250	0xbed11671	-0.40837434
251	0x3d034009	0.03204349
252	0x3e5c14c6	0.214923
253	0xbf468a1b	-0.7755448
254	0xbe844c47	-0.25839445
255	0xbf26bcb5	-0.65131694

0.bias f4 [50]
0	0x3e1b81c2	0.15186217
1	0xbe5f545f	-0.21809529
2	0x3e7fabc3	0.24967866
3	0xbe38dc92	-0.18052891
4	0x3d8039c1	0.06261016
5	0x3d5a0df8	0.053235978
6	0x3e05af56	0.13055167
7	0xbe1c78ce	-0.15280458
8	0xbe630dfc	-0.22173303
9	0x3e7a422d	0.24439307
10	0xbe2fe153	-0.17175798
11	0x3d56e0f4	0.052460626
12	0x3e01bf0d	0.12670536
13	0x3dfdf375	0.12399951
14	0xbdab7104	-0.083711654
15	0x3e8db89b	0.27679905
16	0x3d84de37	0.064876966
17	0x3ea1564e	0.31511158
18	0x3dfd9904	0.12382701
19	0x3da44fbf	0.08023023
20	0xbde3102d	-0.1108707
21	0x3ddc28f5	0.107499994
22	0xbdd3f64c	-0.10349712
23	0x3e159b97	0.14610134
24	0xbe1d0255	-0.15332921
25	0x3d94c9ac	0.07265028
26	0x3dbae149	0.09125001
27	0x3d15e340	0.036593676
28	0xbe47e1de	-0.19519755
29	0xbe12ed3e	-0.14348313
30	0xbe920553	-0.28519687
31	0xbe20a967	-0.15689622
32	0xbe1bce1e	-0.15215346
33	0x3ddb52af	0.1070913
34	0xbe8ff53e	-0.28116792
35	0x3cfcd0d2	0.030861292
36	0xbe165634	-0.14681321
37	0x3e16e560	0.14735937
38	0xbe686288	-0.22693837
39	0xbe0cef37	-0.13763128
40	0xbe92c475	-0.2866551
41	0x3d4aad7e	0.04948186
42	0xbe76ca62	-0.2410064
43	0x3e88a41a	0.266877
44	0x3e37a5d2	0.17934349
45	0xbe0a317b	-0.13495438
46	0x3e309388	0.17243779
47	0x3e72d8e9	0.23715557
48	0xbe8f8ac3	-0.28035554
49	0x3d8bc6ce	0.06825028

2.weight f4 [50, 50]
0	0xbda230cf	-0.07919466
1	0xbddde654	-0.10834947
2	0xbd942620	-0.07233834
3	0x3cc6ddb0	0.02427563
4	0xbe2482bc	-0.16065496
5	0xbd8fb471	-0.07016838
6	0xbd877b93	-0.06615367
7	0x3e0479b5	0.12937053
8	0x3dca5c20	0.09880853
9	0xbd46b553	-0.048512768
10	0x3dcf828a	0.1013232
11	0xbe967af1	-0.29390672
12	0xbe948e76	-0.2901494
13	0xbd45a65a	-0.04825435
14	0xbddb9c4c	-0.10723171
15	0xbe8f7c76	-0.28024644
16	0xbe8b99c8	-0.27265763
17	0xbe112671	-0.1417482
18	0xbe5a75d9	-0.21334018
19	0xbe395265	-0.18097837
20	0xbe0f0ad2	-0.13968971
21	0xbe850856	-0.25982922
22	0xbd8f9642	-0.07011081
23	0xbdbc6f06	-0.092008635
24	0x3c825fe0	0.015914857
25	0xbe028886	-0.12747392
26	0xbda5a112	-0.08087362
27	0xbe1d3886	-0.15353593
28	0xbdd91b96	-0.10600965
29	0x3dc33fc6	0.09533648
30	0xbd635b72	-0.05550713
31	0x3e05c977	0.13065134
32	0x3d08bcc0	0.03338313
33	0xbdc818df	-0.09770369
34	0xbdddfcd7	-0.10839241
35	0xbd9be3ff	-0.07611846
36	0xbdc01fb0	-0.09381044
37	0xbe111769	-0.14169087
38	0xbd44f934	-0.04808922
39	0x3e00f9d7	0.12595306
40	0x3dc87e48	0.09789711
41	0xbe739e66	-0.23790893
42	0xbd8d70c2	-0.069062725
43	0xbdce0bd1	-0.100608476
44	0xbd3b22d0	-0.045687497
45	0x3d9f7916	0.07786767
46	0xbe07b9e1	-0.13254501
47	0xbd2971aa	-0.041368164
48	0x3d7a5300	0.06111431
49	0xbe942e6d	-0.2894167
50	0xbf24ac78	-0.64325666
51	0xbcc8217b	-0.024430027
52	0xbf64f435	-0.8943513
53	0x3cb31a08	0.021862999
54	0x3f210032	0.62890923
55	0xbdcbe42e	-0.09955631
56	0xbf040851	-0.5157519
57	0x3c2f6090	0.010704175
58	0x3debd166	0.11514549
59	0x3f0f2604	0.5591738
60	0xbd67540b	-0.056476634
61	0x3e7c0c12	0.2461398
62	0xbea788d9	-0.32721594
63	0x3e64a67f	0.22329138
64	0xbcb452e8	-0.022012189
65	0xbe929610	-0.28630114
66	0x3ee5f12d	0.44910565
67	0xbe322ed5	-0.17400678
68	0x3f2fcd7f	0.6867294
69	0x3e9f5c7a	0.31125242
70	0x3cc69e46	0.024245393
71	0x3dbb98f7	0.09160035
72	0xbcacb321	-0.021081509
73	0xbd716aa4	-0.05893959
74	0x3da849de	0.08217214
75	0xbc487b49	-0.012236425
76	0x3f859959	1.0437423
77	0x3dce1e4e	0.10064374
78	0x3d8a38d2	0.06749119
79	0xbcb99dcc	-0.022658251
80	0xbd7bda12	-0.061487265
81	0xbdffad46	-0.12484221
82	0x3dc95bf2	0.0983199
83	0xbe9912ae	-0.29897064
84	0x3d69b2b0	0.057055175
85	0xbf2477e4	-0.6424544
86	0xbda5086c	-0.08058247
87	0x3e9d9f53	0.30785617
88	0xbdaca0be	-0.08429097
89	0x3d84d6b8	0.06486267
90	0x3dcb3e00	0.09923935
91	0x3f73b8ea	0.9520403
92	0x3d027dc4	0.03185822
93	0x3f370e18	0.7150588
94	0x3fb86321	1.4405252
95	0x3dfc6f6e	0.12325941
96	0x3f44c29b	0.76859444
97	0xbddfcf47	-0.10928207
98	0xbd5de1fa	-0.054170586
99	0xbf6be71d	-0.92149526
100	0x3fc0252d	1.5011345
101	0x3c5713c0	0.013127267
102	0x3f7ff969	0.99989945
103	0xbda17425	-0.07883481
104	0xbf228c8b	-0.634957
105	0x3e12397d	0.14279743
106	0x3ea0db09	0.3141711
107	0x3c2546c0	0.010087669
108	0x3da26434	0.079292685
109	0xbed52fbc	-0.4163798
110	0x3d81e236	0.063419744
111	0x3f8821bc	1.0635295
112	0x3e8df81b	0.27728352
113	0x3e99b983	0.30024347
114	0xbceeb488	-0.029138818
115	0xbd9d7645	-0.07688574
116	0xbe914728	-0.283746
117	0xbe9cfc54	-0.3066126
118	0xbee958b8	-0.455755
119	0xbd957c84	-0.0729914
120	0x3dd8a7a4	0.1057885
121	0xbe3b4e7a	-0.18291655
122	0x3b025ff3	0.0019893616
123	0x3f95246f	1.1651744
124	0xbd227744	-0.03966452
125	0x3f8a6c39	1.0814277
126	0x3f35ff2f	0.71092504
127	0xbfa14d1f	-1.260166
128	0x3cd7c690	0.0263398
129	0xbd5f491a	-0.054513074
130	0xbd835345	-0.06412367
131	0xbd65e918	-0.0561305
132	0x3b01f480	0.0019829571
133	0xbda5d53c	-0.08097312
134	0xbdf148be	-0.117814526
135	0x3eca47d4	0.39507926
136	0x3ddd2588	0.10798174
137	0xbf6d6dbc	-0.92745566
138	0x3c74ebf0	0.01494883
139	0x3e2ba84a	0.16763416
140	0x3ccd6968	0.025074676
141	0xbfbe6d59	-1.487712
142	0xbd44a802	-0.048011787
143	0xbb386de3	-0.002814167
144	0x3d2b4338	0.04181215
145	0x3e017d89	0.12645544
146	0x3d9b818d	0.07593069
147	0x3ed15c66	0.40890807
148	0x3d3bacd0	0.045819104
149	0x3ee0f1be	0.43934435
150	0xbde1e667	-0.11030274
151	0x3ddae4c2	0.10688163
152	0xbdb1a9ea	-0.08674987
153	0x3dd84ace	0.10561143
154	0x3b1c16b3	0.002381724
155	0xbcf66d68	-0.030081466
156	0xbb29aadf	-0.00258892
157	0x3d594b64	0.053050414
158	0xbce8e670	-0.028430194
159	0xbe3953c4	-0.1809836
160	0x3c283151	0.010265664
161	0x3cdc3415	0.026880303
162	0xbe3703f6	-0.17872605
163	0xbc93f7d3	-0.018062508
164	0xbd117ebe	-0.03552126
165	0xbd0448c9	-0.032295976
166	0xbcfa76f0	-0.030574292
167	0x3d84b155	0.06479136
168	0x3e1a2d51	0.1505635
169	0x3d863243	0.065525554
170	0x3e3a2141	0.18176748
171	0xba0e4b00	-0.0005428046
172	0x3d11da41	0.035608534
173	0xbe0cde86	-0.13756761
174	0x3de50736	0.11183016
175	0x3d190b66	0.037364386
176	0xbdeb18ef	-0.11479365
177	0x3c242ee2	0.010020943
178	0x3df6a1ea	0.120426014
179	0x3d2e26d8	0.042517513
180	0xbd207bc6	-0.03918054
181	0x3de5621e	0.11200355
182	0x3d742f08	0.059615165
183	0xbe202db6	-0.15642437
184	0xbde90813	-0.11378493
185	0xbe4e3722	-0.20138219
186	0xbdb5ba46	-0.088734195
187	0xbe110a1f	-0.14164017
188	0xbdb73854	-0.089462906
189	0x3e2e0843	0.16995339
190	0x3dfcce66	0.12344055
191	0x3dd11036	0.1020817
192	0xbd93f66e	-0.07224737
193	0xbe3789c3	-0.17923646
194	0x3d31f30d	0.043444682
195	0xbda9c810	-0.08290112
196	0xbe270da1	-0.16313793
197	0xbdc6085a	-0.09669562
198	0x3de114d2	0.10990299
199	0xbe1f68ff	-0.15567397
200	0x3e8e73f9	0.27822855
201	0x3d34f1b3	0.044175815
202	0x3e17da20	0.14829302
203	0x3d95ae22	0.07308604
204	0xbea1a295	-0.31569353
205	0x3b96ee77	0.004606064
206	0xbf4c17d2	-0.79723847
207	0x3cd84a50	0.026402622
208	0x3d8f819c	0.07007143
209	0x3d13a08f	0.036041792
210	0xbd531168	-0.05153027
211	0xbde486c3	-0.11158516
212	0x3f6fc282	0.9365617
213	0xbcf0ff6c	-0.02941867
214	0x3e0179d7	0.12644134
215	0xbf96f098	-1.1792173
216	0x3e8f361d	0.27970973
217	0x3ed1b3a0	0.40957355
218	0xbf48f9ae	-0.7850598
219	0xbe5d5a7a	-0.21616545
220	0x3e384dd7	0.17998444
221	0x3d07da9d	0.03316747
222	0xbd79cbb2	-0.060985275
223	0x3e72469d	0.2365975
224	0xbd940ec4	-0.07229379
225	0x3ea3ed18	0.32016826
226	0x3e761723	0.24032263
227	0x3e9f11ca	0.3106826
228	0xbde77643	-0.113018535
229	0xbd7a2720	-0.06107247
230	0xbd9b13c3	-0.075721286
231	0xbde3a4fc	-0.11115453
232	0xbd19f80c	-0.03759007
233	0xbedfc92c	-0.4370817
234	0xbe026084	-0.1273213
235	0x3f6a7703	0.9158785
236	0x3d6d0c68	0.05787316
237	0xbf4e4b8c	-0.80584025
238	0x3c8367e8	0.016040757
239	0xbe40edcd	-0.18840714
240	0x3db01b8a	0.08599003
241	0x3f42f558	0.76155615
242	0xbb027a40	-0.0019909292
243	0xbc3e5a3a	-0.011618191
244	0x3f1f762a	0.6228968
245	0x3d6a848c	0.057255313
246	0x3eb9a4d2	0.3625856
247	0x3eefca59	0.46834067
248	0x3dbff0d8	0.09372109
249	0xbee8c82b	-0.45465216
250	0xbd9d7d2c	-0.0768989
251	0x3dc8387c	0.097763985
252	0xbcd766bc	-0.026294105
253	0x3c6558b0	0.0139981955
254	0x3cf888bc	0.030338638
255	0xbd94a7b4	-0.07258549

2.bias f4 [50]
0	0xbe91c8bd	-0.28473464
1	0x3e463b57	0.19358574
2	0x3df12af7	0.11775773
3	0x3d921135	0.07132188
4	0x3df6dbf7	0.12053674
5	0x3bd2f57e	0.0064379564
6	0xbba1002e	-0.0049133515
7	0x3ec4611c	0.3835534
8	0x3e5b1dd8	0.21398103
9	0xbd842bfe	-0.06453703
10	0x3e4e6ef7	0.20159517
11	0x3e45f394	0.19331199
12	0xbde7caa1	-0.11317945
13	0xbe5c6704	-0.21523672
14	0xbd8b2334	-0.06793824
15	0xbe190ddf	-0.14946698
16	0x3ea01bcb	0.31271204
17	0x3e45e947	0.1932727
18	0x3f11ba0e	0.5692452
19	0xbe007b9d	-0.12547155
20	0x3e161786	0.14657411
21	0x3d223152	0.039597817
22	0xbb256200	-0.0025235415
23	0x3dabc715	0.08387581
24	0x3d20a26a	0.03921739
25	0x3d464474	0.048405126
26	0x3ac29280	0.0014844686
27	0xbbc1d754	-0.0059155617
28	0x3cbe777d	0.023250336
29	0xbdcdb10a	-0.10043533
30	0xbd25cdae	-0.040479355
31	0xbd3fd250	-0.04683143
32	0x3ea8326d	0.32850972
33	0xbe1e665c	-0.15468735
34	0x3e6b627a	0.22986785
35	0xbd56100c	-0.052261397
36	0xbdd695de	-0.10477804
37	0x3ea203ef	0.31643626
38	0xbd97f469	-0.074196644
39	0x3dda3777	0.1065511
40	0x3eb9b84c	0.3627342
41	0x3e08f1c2	0.13373473
42	0x3e82d6a9	0.25554398
43	0xbd22051b	-0.03955565
44	0x3dc54142	0.096315876
45	0x3e4cfe73	0.2001894
46	0x3e0ec6ea	0.13943067
47	0xbe4bb862	-0.19894555
48	0xbe4a1053	-0.1973279
49	0xbe277e6d	-0.16356821

4.weight f4 [24, 50]
0	0x3e24b0e1	0.16083099
1	0x3f06e453	0.52692145
2	0xbeba1506	-0.36344165
3	0x3d9623f3	0.073310755
4	0xbefd1d19	-0.49436262
5	0xbd90f5cc	-0.07078132
6	0x3d675ba2	0.056483872
7	0x3ed3efb0	0.41393805
8	0x3e400a68	0.1875397
9	0x3c84928e	0.016183164
10	0x3e0ae9c8	0.13565743
11	0x3f2f6571	0.6851416
12	0xbd9d74e3	-0.0768831
13	0xbd8da729	-0.06916649
14	0x3bee9ef1	0.007282131
15	0xbc182bba	-0.009287769
16	0xbc7ac0eb	-0.015304784
17	0x3cdded8c	0.02709081
18	0xbf5b64a8	-0.85700464
19	0x3ab0cb00	0.0013488233
20	0x3e5ebb6d	0.21751185
21	0xbd77d46a	-0.06050531
22	0x3d1e7750	0.038688004
23	0xbf81a957	-1.0129803
24	0xbde1b993	-0.110217236
25	0xbf2c9962	-0.67421544
26	0xbdb3feea	-0.087888554
27	0xbcb44f4f	-0.022010474
28	0xbf4d8ccb	-0.8029296
29	0xbd0644f2	-0.032780595
30	0x3d80e9c3	0.062945865
31	0x3c9b6233	0.018967723
32	0x3b05ffe1	0.0020446705
33	0xbd3dc9ca	-0.04633502
34	0xbf74a8ea	-0.9557024
35	0x3d3c2652	0.045934983
36	0x3cee8813	0.02911762
37	0x3f1b89d0	0.6075716
38	0xbd1c7670	-0.03819889
39	0x3ebc5d84	0.36790097
40	0xbf4db28f	-0.80350584
41	0xbf2888ce	-0.6583375
42	0xbf6272da	-0.884565
43	0x3deb1428	0.11478454
44	0xbef1db3b	-0.47237572
45	0x3e840cca	0.25791007
46	0xbf4bfec1	-0.796856
47	0xbd96245d	-0.073311545
48	0xbd7e3f4c	-0.062072083
49	0xbe16e473	-0.14735584
50	0x3d16bfd8	0.03680405
51	0x3f3c010b	0.7343909
52	0x3db325af	0.08747422
53	0xbe1d1bcc	-0.15342635
54	0x3eca5fea	0.39526302
55	0xbe3c1997	-0.18369137
56	0xbe1872cc	-0.14887542
57	0x3e21ce38	0.15801322
58	0xbfa8a21b	-1.3174471
59	0xbeec5379	-0.46157435
60	0xbcc8aefb	-0.0244975
61	0xbf5ec173	-0.8701393
62	0xbcee3219	-0.029076623
63	0x3ddc3544	0.10752347
64	0x3d6ae427	0.05734649
65	0xbe5f498d	-0.21805401
66	0x3f34e007	0.7065434
67	0xbf4735a3	-0.7781622
68	0x3c2c0613	0.010499495
69	0x3df7c2d2	0.12097706
70	0xbfcce17d	-1.6006314
71	0xbc98e5fe	-0.018664356
72	0x3c72dfc0	0.014823854
73	0xbc06c110	-0.008224741
74	0x3c02e7bc	0.00798982
75	0xbe296477	-0.1654223
76	0xbcc931fc	-0.024559967
77	0xbb0e79a1	-0.0021739977
78	0x3e77bc4c	0.24192923
79	0x3db2922f	0.087192886
80	0xbe4d8efc	-0.20074075
81	0x3bc03863	0.005866097
82	0xbf56eb7f	-0.8395309
83	0xbdfe1788	-0.12406832
84	0xbdc6ca0f	-0.09706508
85	0x3d91510e	0.07095538
86	0xbe15b48f	-0.14619659
87	0x3ec0929e	0.3761186
88	0xbcb8c094	-0.022552766
89	0xbeb27df4	-0.3486172
90	0x3f1587e3	0.5841047
91	0x3ecd77a5	0.40130344
92	0x3ea94041	0.33056834
93	0xbf4d7eb0	-0.80271435
94	0x3eb1332c	0.34609354
95	0xbe565458	-0.20930612
96	0x3f287d8b	0.65816563
97	0xbe37a942	-0.1793566
98	0x3d6f6ad4	0.05845149
99	0xbe06f8dc	-0.1318087
100	0x3a13fa91	0.0005644942
101	0xbe4e12d4	-0.2012437
102	0xbefb1dcc	-0.4904617
103	0x3ca1aed6	0.019736689
104	0xbe9ca5f7	-0.3059537
105	0xbc9baff2	-0.019004796
106	0xbda59701	-0.08085442
107	0xbf4e4b0b	-0.80583256
108	0x3f136c40	0.5758705
109	0xbc23615c	-0.009971943
110	0xbf49fbfd	-0.7890013
111	0x3ee364e8	0.44412923
112	0xbd1fb7e6	-0.03899374
113	0xbcdb4c7a	-0.026769865
114	0x3d662e5a	0.056196548
115	0xbe57f1e3	-0.21088366
116	0xbf084efd	-0.53245527
117	0x3f01510f	0.5051431
118	0x3f2443f7	0.64166206
119	0x3df389b6	0.11891501
120	0xbc0d64af	-0.008629962
121	0xbd5bb588	-0.05363992
122	0xbdc76c8a	-0.09737499
123	0x3eebc082	0.4604531
124	0xbdb649fd	-0.08900831
125	0xbe8ef03e	-0.27917665
126	0x3e03b4b5	0.12861903
127	0x3c32fd6f	0.010924681
128	0xbf88ecb7	-1.069724
129	0xbda89713	-0.0823194
130	0xbc844e12	-0.016150508
131	0x3d26d12b	0.040726822
132	0xbf8eb737	-1.1149663
133	0xbdab73cb	-0.08371695
134	0x3deada35	0.11467401
135	0xbd28430d	-0.04107957
136	0xbd8d2785	-0.068923034
137	0xbf5cf831	-0.8631621
138	0xbdde454f	-0.10853063
139	0xbeed4745	-0.46343437
140	0x3b86575f	0.004099771
141	0xbeea5d7d	-0.4577445
142	0x3ebe2915	0.37140718
143	0xbf1c55ac	-0.61068225
144	0xbd11abe9	-0.035564337
145	0x3ebb56d0	0.3658967
146	0xbfa8a595	-1.3175532
147	0xbe60a58a	-0.21938148
148	0xbe430cc2	-0.19047835
149	0x3d60cc6d	0.054882456
150	0xbc409613	-0.0117545305
151	0xbf122085	-0.5708087
152	0x3e7825f8	0.24233234
153	0xbda8379c	-0.08213732
154	0x3e0eacc8	0.13933098
155	0xbc3c5273	-0.011494267
156	0x3da2e0dd	0.079530455
157	0xbd71f411	-0.05907065
158	0xbf561b5a	-0.83635485
159	0xbe2845f4	-0.16432935
160	0xbf377d1a	-0.71675265
161	0xbe7107c9	-0.23538126
162	0x3b12a925	0.002237865
163	0xbe0f03c7	-0.13966285
164	0xbdaa92e3	-0.08328798
165	0x3d73c54d	0.059514333
166	0x3e5704c8	0.20997918
167	0xbf1a7474	-0.60333943
168	0xbed8a818	-0.42315745
169	0xbd1af734	-0.037833408
170	0xbe28fcc0	-0.16502666
171	0xbe05a0a2	-0.13049558
172	0xbcf46cd8	-0.029837057
173	0xbf215e60	-0.6303463
174	0xbe2a0c2a	-0.16606203
175	0xbf3b7b1c	-0.73234725
176	0xbc1391c0	-0.0090069175
177	0xbdd16466	-0.102242276
178	0x3d33a2c7	0.04385641
179	0x3dfa67ae	0.122268066
180	0xbdbdfe04	-0.09276965
181	0x3ca78211	0.020447763
182	0x3f3aa8c2	0.72913754
183	0xbd3d6ae8	-0.046244532
184	0xbf55f0eb	-0.83570737
185	0xbdc29e12	-0.09502806
186	0xbd07439d	-0.033023465
187	0xbea1ad9b	-0.31577763
188	0x3dd8dfdc	0.10589573
189	0x3f266e53	0.6501209
190	0xbf6b9f0e	-0.92039573
191	0x3ebe69b4	0.3719002
192	0x3eccf759	0.4003246
193	0x3f41c624	0.75692964
194	0xbe04a4dc	-0.12953514
195	0xbe5b4855	-0.21414311
196	0x3eefc6f8	0.4683149
197	0xbe644da2	-0.2229524
198	0xbc6518da	-0.013982976
199	0xbdac291d	-0.08406279
200	0x3dc415d4	0.09574476
201	0x3eafa041	0.34301952
202	0x3e0bcf39	0.13653268
203	0x3b84bf60	0.004051134
204	0xbf230b14	-0.6368878
205	0xbdbc3843	-0.091904186
206	0xbe3d1d0f	-0.18468116
207	0xbf8510d8	-1.0395765
208	0x3ed5f7a1	0.41790488
209	0xbd775166	-0.060380362
210	0x3f3feef6	0.74974
211	0xbe9edc54	-0.31027472
212	0xbddc28b4	-0.10749951
213	0xbe10dc75	-0.14146598
214	0x3dc37e7d	0.0954561
215	0x3d685d12	0.056729384
216	0xbf8af959	-1.0857345
217	0x3f19e341	0.60112387
218	0xbf99c8fc	-1.201446
219	0xbd77ef8e	-0.06053119
220	0xbe5c18c1	-0.21493818
221	0xbe132199	-0.14368285
222	0x3d204b00	0.039134026
223	0x3ed5af10	0.41735125
224	0xbe51869c	-0.20461506
225	0x3f16b098	0.5886321
226	0xbdd5fa84	-0.10448173
227	0x3cf2a59c	0.029619984
228	0xbea63d8b	-0.3246883
229	0x3c90c13e	0.01767027
230	0x3d1f62b2	0.038912483
231	0x3d3571f2	0.04429812
232	0x3e2a250b	0.16615693
233	0x3d8a3c14	0.0674974
234	0xbe147371	-0.14497162
235	0xbe2f7ee3	-0.17138247
236	0xbe47a06b	-0.19494788
237	0xbf12a0c9	-0.5727659
238	0xbe02521c	-0.12726635
239	0xbf4a5532	-0.7903625
240	0x3e416513	0.18886213
241	0xbecd070a	-0.40044433
242	0x3e9d5919	0.3073204
243	0xbe811eca	-0.25218803
244	0x3f150a60	0.58218956
245	0xbfc184d0	-1.5118656
246	0x3daf7dc1	0.085689075
247	0xbe541989	-0.20712866
248	0x3dd9ce6f	0.10635077
249	0x3ddc1b4d	0.10747395
250	0xbe042007	-0.12902842
251	0x3e5b6c97	0.21428142
252	0xbf8640e5	-1.0488554
253	0xbe09b4d0	-0.1344788
254	0x3e8b065b	0.27153286
255	0xbe3ff93c	-0.18747419

4.bias f4 [24]
0	0xbe8a1650	-0.26970148
1	0xbeb68a1d	-0.35652247
2	0xbe86169f	-0.26189134
3	0xbdbca4d1	-0.09211124
4	0xbe8000e0	-0.25000668
5	0xbe23b6d5	-0.15987714
6	0xbe5f18cd	-0.21786804
7	0xbe3e37b3	-0.18575935
8	0xbe82d483	-0.2555276
9	0xbf163375	-0.5867227
10	0xbe3cec0a	-0.18449417
11	0xbe04b9fd	-0.12961574
12	0xbc31c953	-0.010851222
13	0x3da80a52	0.082050934
14	0x3e0c733d	0.13715835
15	0x3e711e7a	0.23546782
16	0x3de16e05	0.11007313
17	0x3e6a2554	0.22865802
18	0x3e875d9a	0.264386
19	0x3c454fe5	0.012042974
20	0x3b201251	0.002442498
21	0xbdf93e3b	-0.12170073
22	0x3e5fb3ae	0.21845886
23	0x3ea00aee	0.3125834
